ML_deseases/tfliteModels/banana.tflite (tflite, 50816 bytes, 10 tensors)

sequential_2/conv2d_7/Relu;sequential_2/conv2d_7/BiasAdd;sequential_2/conv2d_10/Conv2D;sequential_2/conv2d_7/Conv2D;sequential_2/conv2d_7/BiasAdd/ReadVariableOp f4 [20, 3, 3, 3]
000000 ff f5 33 ba 49 5d db 39 86 ca e7 39 3c 43 fd 36
       -0.00068649644 0.00041840438 0.00044210645 7.5478147e-06
000010 dd c9 3f 39 30 cc 14 3a 01 eb 90 b9 e9 50 d4 39
       0.0001829038 0.0005676178 -0.00027640912 0.00040496074
000020 57 ea 99 39 6a fb 69 b7 b7 ec 52 3a 32 0c 94 b9
       0.0002935703 -1.3946419e-05 0.00080461375 -0.00028237846
000030 10 65 1f ba 00 03 86 39 c1 37 ec 39 eb 1a 95 39
       -0.0006080428 0.00025560707 0.00045054968 0.0002843955
000040 e2 aa 81 3a f8 45 71 b9 33 55 3c ba 21 42 0d 39
       0.0009892846 -0.00023009616 -0.00071843265 0.00013471443
000050 b1 8d 2c 39 35 a8 b9 39 0a c9 27 3a 04 75 8f b8
       0.00016455982 0.00035411274 0.00064005016 -6.840567e-05
000060 f3 38 92 37 e4 8e 4f 3a 50 a0 99 b9 63 be 3b 3a
       1.7431075e-05 0.00079177157 -0.00029301876 0.0007161854
000070 64 8d 4e 3a 99 35 96 39 ec 33 f5 38 38 29 70 3a
       0.0007879345 0.00028650163 0.000116921816 0.00091614155
000080 e4 6f 0d b8 39 96 80 3a 3f 77 09 3a aa b7 5d 38
       -3.3721226e-05 0.0009810395 0.00052439043 5.2861556e-05
000090 50 f7 d1 b9 f1 2c e5 b9 6d 09 88 b7 2e 9c 94 b9
       -0.0004004785 -0.00043711768 -1.6216853e-05 -0.00028345123
0000a0 29 bc 22 3a b8 8c a9 ba 83 b8 48 3a 64 bb f6 b9
       0.00062078476 -0.0012935614 0.0007656889 -0.00047060393
0000b0 93 b6 12 39 47 7d 07 3a e6 8e 6d 38 15 26 b2 ba
       0.00013991659 0.0005168509 5.6638288e-05 -0.0013591672
0000c0 73 5a 28 ba d6 d0 17 ba d8 fa d0 ba 29 f4 e2 39
       -0.00064221694 -0.0005791312 -0.0015943898 0.00043287993
0000d0 da a0 56 39 ad 61 93 ba 13 d5 f6 b8 f7 c8 6c ba
       0.00020468552 -0.001124432 -0.00011769882 -0.00090326316
0000e0 b8 32 07 3a 48 dd ef b8 12 b0 94 38 f4 0f 07 3a
       0.0005157399 -0.00011437625 7.0899856e-05 0.00051522185
0000f0 a2 0a 3a ba c0 b4 3e ba f4 e9 42 3a 2e 28 cb 39
       -0.00070969213 -0.00072748587 0.00074353744 0.00038749113
000100 18 52 46 ba b9 6a 87 3a d8 69 98 b9 bf 8b 30 ba
       -0.00075653335 0.0010331488 -0.0002907056 -0.0006734691
000110 98 88 88 3a 0b ff e7 b9 64 de 7e ba 1f 81 e0 39
       0.0010416685 -0.00044249775 -0.000972247 0.00042820812
000120 ca ad 9b 39 06 4d b7 b9 69 f9 ba b8 d3 fe 49 39
       0.00029693387 -0.00034961867 -8.9156274e-05 0.00019263783
000130 ac a8 08 b6 49 15 0a 39 2f 96 88 b9 64 63 97 39
       -2.036376e-06 0.00013168635 -0.00026051837 0.00028875016
000140 70 ac 69 3a f2 0f a0 39 69 76 d2 b9 6b c5 f1 b9
       0.000891394 0.00030529458 -0.00040142544 -0.0004611419
000150 7d 25 51 3a de ad 45 b9 25 3c bd b9 d7 bf d4 39
       0.00079783035 -0.00018852155 -0.000360937 0.00040578723
000160 ed 9c 3b ba 90 ed 48 b7 b2 30 0b 3a cf 62 e9 b9
       -0.00071568677 -1.1976241e-05 0.00053096854 -0.0004451484
000170 89 d8 9b b8 fd 98 44 b9 43 4a 13 ba 1b 7f 07 b9
       -7.431309e-05 -0.00018749009 -0.0005618671 -0.00012921954
000180 8c 4f ea b8 4d 95 63 39 4d 7f e4 b9 42 d3 f8 39
       -0.00011172806 0.00021704026 -0.00043582395 0.00047459645
000190 88 eb 37 ba 61 99 0c 3a a4 bc 2d 39 92 9c 3c 39
       -0.0007015993 0.00053634314 0.0001656884 0.00017987404
0001a0 9c 03 9d 39 9e 5f 0a ba 35 e4 24 ba 79 f2 03 3a
       0.00029948063 -0.00052785303 -0.0006290109 0.00050333847
0001b0 85 3d ee b9 80 cf 8c ba 40 91 fc b9 a3 85 5e b9
       -0.00045440733 -0.0010742992 -0.00048173405 -0.00021221353
0001c0 f6 51 50 b8 f8 fb 63 ba 4f 7b ed 39 11 cf bd 39
       -4.9667397e-05 -0.0008696909 0.00045296035 0.00036203166
0001d0 3d 3c 24 ba 46 a0 f2 39 6a 64 2c ba 3b c5 44 ba
       -0.000626508 0.0004627725 -0.0006576242 -0.0007506196
0001e0 a1 67 0e 3a 61 1f 15 3a 80 76 19 ba 6b 2c 84 3a
       0.0005432312 0.0005688575 -0.00058541447 0.0010084038
0001f0 b1 25 68 b9 54 0c 57 ba 69 64 59 b9 74 77 21 ba
       -0.00022139285 -0.0008203436 -0.00020732138 -0.00061594625
000200 6d 26 8a ba cc 76 4e 3a 13 76 1c b8 c6 c8 48 ba
       -0.0010540016 0.00078759785 -3.7303264e-05 -0.0007659312
000210 12 88 39 3a 0b b0 b1 39 70 da d9 37 78 94 5a 3a
       0.0007077466 0.00033891233 2.5970134e-05 0.00083381636
000220 4f 1a 1f 3a db e3 08 bb 26 f6 91 b9 2c ea 22 ba
       0.0006069289 -0.0020887766 -0.0002783995 -0.0006214704
000230 ed 8e 16 bb 68 a3 85 39 49 92 2e 38 b7 aa a0 ba
       -0.0022973374 0.00025489484 4.162107e-05 -0.0012257908
000240 5e 60 93 b9 fa 86 c1 b8 32 b4 23 bb 24 7a 85 39
       -0.00028109824 -9.2280985e-05 -0.002497923 0.0002545874
000250 ef ba 0c b9 41 d8 2a bb e3 e5 c0 39 37 77 e1 38
       -0.00013421079 -0.0026068839 0.00036792373 0.000107510416
000260 f9 83 37 bb a2 c2 b4 39 10 4f 41 3a 1b 4a 01 bb
       -0.0028002246 0.00034477288 0.0007374147 -0.0019728008
000270 ff 5d 04 b9 7e 5b 0b ba d5 2e f6 ba 1d 7a b3 39
       -0.00012623517 -0.00053160626 -0.0018782268 0.00034232522
000280 90 46 11 b9 df 24 34 bb 13 b2 1a 3a 3e e4 80 ba
       -0.00013854564 -0.0027487797 0.0005901169 -0.0009833646
000290 ac 68 c1 b8 44 14 dd b8 1f de e2 b9 92 06 4b 3a
       -9.222454e-05 -0.00010541876 -0.00043271572 0.00077448145
0002a0 4b d9 50 39 3c 40 ca b9 5a 03 f4 39 89 87 e6 b8
       0.00019917374 -0.000385763 0.00046541804 -0.000109925
0002b0 3e 16 75 b9 89 b7 7a b8 98 c1 c0 39 64 66 8e ba
       -0.00023373307 -5.9775575e-05 0.00036765332 -0.0010864255
0002c0 b4 9d 56 3a c2 7e 8b b9 82 9d 00 ba 55 1f 24 3a
       0.0008186952 -0.00026606588 -0.0004906283 0.00062607724
0002d0 b3 30 a2 b9 88 e3 68 39 af 65 4e 39 15 cb dd b9
       -0.00030935332 0.00022210006 0.00019683571 -0.00042303713
0002e0 45 bb df b7 ae 62 1d 3a 74 c9 45 b7 3c 9f 2d ba
       -2.6670876e-05 0.0006003779 -1.17890195e-05 -0.0006623154
0002f0 28 39 65 3a 51 ee 9d b9 f5 bd 2c ba 74 20 d9 39
       0.00087441737 -0.00030122933 -0.0006589585 0.00041413645
000300 63 b3 4c ba 3b b9 b6 b9 f5 f6 d0 39 b1 c9 1f 39
       -0.0007808713 -0.00034851753 0.0003985685 0.00015238558
000310 27 3a 88 39 03 66 01 ba e4 5c 52 ba 9d 30 7a 39
       0.00025983268 -0.00049361604 -0.0008024706 0.00023859968
000320 8a 16 de b7 7e d9 3e ba 51 f8 3c b9 0e 33 8c b8
       -2.6474958e-05 -0.00072803337 -0.00018021582 -6.68523e-05
000330 50 75 e5 b9 76 3c cb b8 6d bd f6 b9 16 97 0e b9
       -0.00043765688 -9.691056e-05 -0.0004706191 -0.00013598459
000340 8b f4 59 ba 51 a6 d2 b9 da 15 26 b9 25 51 d0 38
       -0.0008314333 -0.00040178237 -0.00015839134 9.933327e-05
000350 88 6f 69 b7 9d 7e ca b8 8b 28 45 ba 28 b0 9a 39
       -1.391385e-05 -9.655694e-05 -0.0007520995 0.00029504416
000360 40 a9 ee 39 73 75 4d b9 5b b1 18 3a 6b ed 68 3a
       0.00045520999 -0.00019594077 0.0005824768 0.00088854757
000370 0a cc 68 ba 14 a6 94 37 38 b5 82 3a 78 12 6f ba
       -0.0008880502 1.7720311e-05 0.000997222 -0.00091198785
000380 76 3e 2e ba e3 21 f3 39 d5 e5 23 ba 40 c9 17 ba
       -0.00066468806 0.0004637382 -0.0006252204 -0.00057901815
000390 d2 4d 15 3a 3f 14 9a ba 6e 9f 3b b9 7d 4f 92 3a
       0.0005695495 -0.0011755301 -0.00017893102 0.0011162605
0003a0 8d cb db b9 1e ef 7c 39 36 21 35 3a c1 84 d3 b9
       -0.00041922592 0.00024121671 0.0006909551 -0.00040343966
0003b0 ba f0 29 b7 d2 af 98 3a 8b 41 c3 b9 81 a8 1e b9
       -1.01292335e-05 0.0011649078 -0.00037242132 -0.00015130827
0003c0 74 04 34 3a 1f da 72 b9 e6 9d f3 b9 dd b2 09 ba
       0.00068671186 -0.00023160175 -0.00046466215 -0.0005252788
0003d0 05 27 36 ba a1 cb 9f ba 58 b5 73 b9 0e fb 45 39
       -0.00069485634 -0.0012191423 -0.00023241842 0.00018880909
0003e0 a7 08 15 ba 56 a7 1e 3a e9 65 1e 3a c8 63 6c b9
       -0.0005685188 0.00060521567 0.00060424075 -0.00022543885
0003f0 6e ca 31 3a e1 ec 1d 3a c2 51 12 b7 86 85 b3 b9
       0.00067821785 0.00060243724 -8.721314e-06 -0.00034241023

sequential_2/conv2d_7/BiasAdd/ReadVariableOp f4 [20]
000000 fd 77 cf be 10 de 7e 3c fb 91 06 3e 9c b3 9d bd
       -0.4052123 0.0155558735 0.13141625 -0.077002734
000010 ef 1c e6 3d 9d 00 89 3e e5 6c 11 3e 86 00 4d 3e
       0.112359874 0.2675828 0.14201696 0.20019731
000020 8b 6d 6c 3d f2 e5 f8 bc d7 26 9e 3d 85 84 1b be
       0.057721656 -0.030383084 0.07722252 -0.15187271
000030 13 4d a1 3d 74 38 2f 3e 05 c6 6c 3d 9d 91 61 be
       0.07876029 0.17111379 0.057806034 -0.22028203
000040 9b 49 44 bd 87 31 a5 3d 54 30 84 be c2 22 bb 3e
       -0.04792176 0.08066087 -0.2581812 0.36549956

sequential_2/conv2d_8/BiasAdd/ReadVariableOp f4 [20]
000000 85 0a 49 3c c8 c7 78 3e 2b b7 5e 3d 2a b6 f3 3c
       0.012270574 0.2429496 0.0543739 0.029749949
000010 1f ad 74 bd 1c a7 77 3e 76 5e 14 bd 48 50 c2 3d
       -0.059735414 0.24184841 -0.036222897 0.09487969
000020 f7 21 98 3d 47 7c e1 bd e1 d7 32 bd b7 c7 ef bd
       0.07428353 -0.11010032 -0.04366291 -0.117080145
000030 c8 ff 86 3d 3f 44 69 3d d6 f7 88 3d 7d 78 cf bc
       0.06591755 0.05694985 0.06687896 -0.025326008
000040 7f 26 d1 bd eb d8 24 3e 05 cd 12 3e a4 80 da bc
       -0.10212421 0.16098373 0.14336021 -0.026672669

sequential_2/conv2d_9/BiasAdd/ReadVariableOp f4 [20]
000000 3b 8b d2 3c c6 0b 84 bd 0c 5b 9f b9 c6 ae ce bc
       0.025701156 -0.06447558 -0.00030394678 -0.025229823
000010 8d 84 0c be 67 dc 8e 3c f9 21 20 be 8c e8 58 be
       -0.13722439 0.01743908 -0.1563796 -0.2118246
000020 67 a4 df 3e 29 f2 ef bd 9d 72 b6 bd 7b ac dc bc
       0.43680117 -0.1171611 -0.089085795 -0.026937714
000030 16 b9 aa 3a c7 7e 65 be 17 a0 e1 3e 18 3b 77 be
       0.0013025131 -0.22411643 0.4406745 -0.24143636
000040 1b d5 7d 3c 26 1b 5f 3e 78 2a e9 bd 36 43 a3 3b
       0.015492703 0.217877 -0.113850534 0.0049823774

sequential_2/conv2d_10/BiasAdd/ReadVariableOp f4 [20]
000000 e0 2a c0 be 56 bd d9 bd 2b 6e de 3e 57 44 93 bd
       -0.3753271 -0.10631816 0.43443426 -0.07190769
000010 06 a1 9f 3c b3 07 b3 be da c5 a0 3e 38 ea e8 3b
       0.019485962 -0.34966812 0.3140095 0.007107999
000020 56 69 b8 bc 9c 6d 74 be 19 24 dc 3d ea 4e 98 3e
       -0.022511166 -0.23869938 0.107490726 0.29747707
000030 c7 34 b3 3d fb dc 20 bd 80 e2 23 bd ac 75 ee bc
       0.08750301 -0.039273243 -0.04001093 -0.029108845
000040 19 45 08 be 42 a7 c7 be 8d 7c 5c be e8 27 ca 3d
       -0.13307609 -0.38994795 -0.21531887 0.09870893

sequential_2/conv2d_8/Conv2D f4 [20, 3, 3, 20]
000000 5f d0 d6 bd 04 3e 61 be 38 d3 fa 3a 3a ec 9c bd
       -0.104889624 -0.21996313 0.0019136434 -0.07662244
000010 65 fe 88 be 1d 23 30 bf ee df 61 3e 88 cf 7f 3e
       -0.26756588 -0.6880358 0.22058079 0.2498151
000020 2d 9a 13 3e 97 5d 73 be 75 70 45 3e d6 2b 3f be
       0.14414282 -0.2376617 0.1928118 -0.18669066
000030 09 d6 55 3e 70 15 1b 3f 2e 5d f0 3d 0d da 0d be
       0.20882429 0.60579586 0.117365226 -0.13852711
000040 8e b1 a2 3d 38 3f a6 be d5 e8 8f bd 17 49 57 3e
       0.07944022 -0.32470107 -0.07026831 0.21023975
000050 7b ad 1d be 58 be 3b bf 24 5f d4 3d 5c 8a cb bd
       -0.15398209 -0.73337317 0.10369709 -0.09938499
000060 a0 5f a3 be 8a 61 32 bf a1 55 85 3d 68 5d 26 3e
       -0.31908894 -0.6968008 0.06510473 0.16246569
000070 cf 3d 05 3e fe ca c4 be 6f 7e 75 3e f9 b6 ca bd
       0.1301186 -0.3843612 0.23974012 -0.098981805
000080 19 e0 0f 3e d5 eb 00 3f 1e d6 cb bc e7 f7 55 be
       0.1405033 0.5035985 -0.024882372 -0.20895348
000090 bc d3 c9 bd 22 ae c1 be 27 22 8a bd d8 9e 89 3b
       -0.09854838 -0.37828165 -0.06744795 0.004199844
0000a0 d2 37 03 be 39 1b 8d be 7c e0 c0 3d be 4f 41 bb
       -0.12814263 -0.27559832 0.09417817 -0.0029496993
0000b0 5e d2 ff bd 51 7c 39 bf 3a fb 85 3c 52 ab 45 3d
       -0.12491296 -0.72455317 0.016355146 0.048259087
0000c0 9c 4a 9a 3e c0 6e a7 be 8e fc 52 bb ea 3f 7a 3d
       0.30135047 -0.32701683 -0.0032193991 0.06109611
0000d0 9a a1 51 3e 10 70 13 3f 9e f6 88 3d e4 d3 2c be
       0.20471802 0.5759287 0.066876635 -0.16877705
0000e0 57 6c d1 bd a0 e2 f2 be 38 7d 9f 3d b4 ab b8 3d
       -0.10225742 -0.47438526 0.077875555 0.09017125
0000f0 ef 59 3e be 32 3c 0a bf c2 fc 48 3e bb 23 86 3d
       -0.18588994 -0.539981 0.1962767 0.06549784
000100 af 3d 8b be cb c5 54 bf d3 3b 64 3e 16 1d 4a 3e
       -0.27195498 -0.8311431 0.22288446 0.19737658
000110 3d 6c 58 3d 8a 85 a9 be 3c ac 36 3e a9 34 ca bd
       0.0528376 -0.33109695 0.1783914 -0.098733254
000120 9c fe 98 3e 82 0d 1c 3f e8 d0 2f bc 0f d1 5a be
       0.29881752 0.6095811 -0.0107309595 -0.21368812
000130 e0 7f 82 3c 95 7a 06 bf cc eb 28 be dc 2d f2 3d
       0.015930116 -0.52530795 -0.164962 0.11825153
000140 86 07 c1 bd dd ba 26 bf d3 22 22 3e 64 d0 ca 3d
       -0.09425263 -0.6512888 0.15833597 0.099030286
000150 36 fb c8 be f4 e9 56 bf e0 bf 60 3d c2 f6 ff 3c
       -0.3925416 -0.83950734 0.054870486 0.031245593
000160 0a 7b 87 3d 1f 6c ec be 0a e2 07 3c 38 8a 54 bd
       0.06615265 -0.4617624 0.008293638 -0.05188963
000170 01 1b d5 3d 9f f0 29 3f c8 7f 89 3d 70 07 af be
       0.10405541 0.66382784 0.067138255 -0.34185362
000180 c4 df 97 3c 12 b6 1a bf e7 63 20 be ee e0 4c 3d
       0.018539317 -0.6043407 -0.1566311 0.050019197
000190 09 36 90 bd cd 8f e9 be ba 1b 69 3e d3 9b 8a bd
       -0.070415564 -0.45617524 0.22764483 -0.06768002
0001a0 32 94 93 be 56 f4 5b bf c6 b9 8a 3e a0 32 0e 3c
       -0.28824002 -0.859197 0.2709486 0.008679062
0001b0 79 4d 43 3e db 23 9e be 94 17 a0 3d 98 76 25 bd
       0.19072522 -0.3088673 0.07816997 -0.040396303
0001c0 a1 8b 2f 3e a2 69 31 3f ad fb 3e bd 4f 09 f5 bd
       0.17143108 0.6930181 -0.046626735 -0.11964666
0001d0 9c f9 6a bd 7a 34 ce be 37 2d 5b be 59 a2 cc 3d
       -0.057366952 -0.4027441 -0.21403967 0.09991903
0001e0 8d ca 40 be 85 db e3 be 99 6c 8a 3d 12 01 01 3e
       -0.18827267 -0.44503418 0.067589946 0.12598065
0001f0 b3 a3 9d be 53 d8 30 bf b5 65 04 3e ba 5b 0e 3e
       -0.30788955 -0.69080085 0.12929423 0.13902178
000200 e2 df 73 3e a2 fe 66 be 4e 20 ea bc 3a 3a fb 3c
       0.23815873 -0.22558072 -0.028579857 0.030667413
000210 31 39 47 3e 3c be 01 3f b4 cc dd 3d e3 ad f3 bd
       0.1945541 0.506809 0.1083006 -0.11898401
000220 f4 f6 21 bc 13 d7 de be 93 d8 44 be 31 7d 2c 3e
       -0.009885538 -0.43523464 -0.19223242 0.16844632
000230 d8 b0 84 be e3 cd ef be 8e c5 91 3e 61 a3 58 3d
       -0.2591617 -0.46836767 0.28471035 0.052890185
000240 c6 69 b3 be c9 14 5c bf b7 e0 10 3d 53 38 3d 3d
       -0.35041636 -0.85969216 0.035370555 0.046196293
000250 74 69 c5 3d 8a d0 ef be ce 73 e3 3c d6 84 b5 bd
       0.09639254 -0.4683879 0.02776518 -0.08863227
000260 a0 39 00 3e d1 62 ef 3e a5 55 6c bd 33 38 62 be
       0.12521982 0.46755078 -0.057698864 -0.22091751
000270 f8 94 56 bc 9a bb df be 65 03 e1 bd 9a b1 78 3d
       -0.01309704 -0.43697816 -0.109869756 0.06071625
000280 46 34 0d bd 51 90 d7 be 45 f9 5d 3d 19 f5 71 3d
       -0.03447368 -0.42102292 0.0541928 0.059071634
000290 7a be 30 be bc 2e 3f bf dc b8 88 3d 4c 79 cd 3d
       -0.17260161 -0.74680686 0.06675884 0.10032901
0002a0 f8 36 3e 3e 62 ed bb be 57 90 3a 3e 55 0a c9 bd
       0.18575656 -0.36704546 0.18219124 -0.09816424
0002b0 94 63 05 3d 4e d7 df 3e 82 19 eb 3d 96 14 86 be
       0.03256567 0.43718952 0.114794746 -0.2618758
0002c0 35 b8 61 3a e3 18 9d be e0 b8 ae bd 59 1f a5 bc
       0.0008610518 -0.3068305 -0.08531356 -0.02015655
0002d0 ca 2b 72 be 81 8f e9 bd 34 0e 30 3e 91 d7 98 bd
       -0.23649517 -0.11404324 0.17192918 -0.07462991
0002e0 10 cf 2a be 5b 32 67 3e d0 16 69 3b 03 45 be 3e
       -0.1668055 0.22577803 0.0035566576 0.37162027
0002f0 48 fe 0c be 00 11 2a be f4 12 d6 3d 28 a3 84 bd
       -0.13768876 -0.16608047 0.10452834 -0.06476432
000300 07 d9 af 3e c7 46 f4 3e eb 75 60 3d 30 96 71 bc
       0.34345266 0.4771025 0.054799955 -0.01474528
000310 78 52 c0 bc c6 0f a0 bd 73 47 30 be 87 da b5 3e
       -0.023476824 -0.078155085 -0.17214756 0.35518286
000320 72 f7 a1 be d9 ef 9e bd 06 df 57 3a dd 49 39 be
       -0.31634098 -0.07760591 0.0008234832 -0.18094583
000330 4e 27 5c bd ef 8a 89 3e 6e 69 93 3d bd 4d 9c 3e
       -0.05374842 0.2686381 0.071978435 0.3052806
000340 a0 5a 37 3d b6 af 85 be 0b a6 46 3d 2b c8 86 be
       0.04476416 -0.2611062 0.048498195 -0.2632459
000350 0c c3 71 3e db d7 09 3f 84 74 e3 bd 97 68 89 bd
       0.2360956 0.53844994 -0.11106208 -0.06709402
000360 e6 1a 96 3d 27 96 1d be 86 11 83 be 5b 5c fc 3e
       0.07329349 -0.1538931 -0.25599307 0.49289212
000370 d5 a8 09 be e2 97 05 be b6 cd dd 3d 72 b5 00 be
       -0.1344331 -0.1304622 0.10830252 -0.12569216
000380 79 b2 3b bd 46 98 69 3e 82 e1 8e 3c ab b6 a9 3e
       -0.0458245 0.22811994 0.017441515 0.33147177
000390 36 98 d1 bc ed 3a 5d be 8b f3 81 bb ea 3b 36 be
       -0.025585275 -0.2160451 -0.0039658 -0.17796293
0003a0 cf c3 9a 3e 8c 55 ef 3e 6b 87 cb bd ba e1 0e be
       0.30227515 0.46744955 -0.09937938 -0.13953295
0003b0 aa d5 15 be 65 78 1b 3d 6a 10 38 be 80 95 f1 3e
       -0.14632288 0.037956614 -0.17975011 0.47184372
0003c0 1d b5 7f be f8 b9 69 be b8 b9 fb 3d 5d d9 49 3d
       -0.24971433 -0.22824848 0.122912824 0.04927956
0003d0 b0 7c 0e 3d 1f e3 b8 3e 34 e6 98 bb eb 62 da 3e
       0.03478688 0.3611078 -0.004666114 0.42653593
0003e0 2c 70 85 3d 03 d6 92 be 0c 53 fb bd 39 b5 52 be
       0.06515536 -0.28678903 -0.12271699 -0.20576943
0003f0 d0 63 a4 3e 78 f3 de 3e 87 ad 91 3c 07 92 05 be
       0.321074 0.43545127 0.01778294 -0.13043986

sequential_2/conv2d_9/Conv2D f4 [20, 3, 3, 20]
000000 84 7f 16 be 43 5f f4 3d fc 58 bf 3e 3b 55 07 3d
       -0.14697081 0.11932232 0.37372577 0.033040266
000010 3a 9e fc bd 8e e8 02 3c b0 11 77 bc bd 1e 1a 3e
       -0.12334867 0.007990016 -0.015079901 0.15050788
000020 30 01 7d bd b1 d8 ca be 02 e3 45 bd 4a c2 bd 3e
       -0.06176871 -0.39618447 -0.048312195 0.37062293
000030 41 f9 2a 3e 4d 77 d2 3e 33 f7 f8 bd bc 5c a8 bd
       0.16696645 0.41106644 -0.121565245 -0.08220813
000040 37 79 9e bd 04 f3 5e bf a0 06 b5 3d b0 d5 3e 3d
       -0.07737964 -0.8708956 0.08839154 0.046590507
000050 ad 13 f6 bd 17 86 47 3d 59 db 87 3e 12 42 ef 3d
       -0.120154716 0.048711862 0.26534536 0.11682524
000060 68 93 9b be bd c6 9c bc 6c fb 82 3d f4 7d b1 3d
       -0.303859 -0.019137735 0.06395611 0.08666602
000070 6d 19 d6 bd a8 a3 f1 be 10 2f 32 3d 09 31 bc 3e
       -0.10454068 -0.47195172 0.043501914 0.3675616
000080 8a 79 ab 3d f7 e9 d0 3e 0e 9a 7e bb 34 74 d8 bd
       0.08372791 0.408035 -0.0038849148 -0.10569039
000090 22 94 a3 bd e3 b1 67 bf f6 50 47 bd 3c 98 81 bc
       -0.079872385 -0.9050581 -0.048661195 -0.015819661
0000a0 7c 21 5a 3e c2 bb 95 3e d7 b2 78 3e 6a 11 13 3e
       0.21301836 0.2924481 0.24286972 0.14362112
0000b0 50 02 a6 3c 8f 88 12 3d ff d5 d7 bd 8e 16 b5 bd
       0.020264775 0.035774764 -0.105388634 -0.088421926
0000c0 ed 33 73 be 93 61 2c be 58 ac 12 3d 0a ba 1b 3e
       -0.23750277 -0.16834097 0.03580889 0.15207687
0000d0 98 c1 8b 3d 56 41 25 3e 0d 21 b0 bd 23 52 ee 3d
       0.068240345 0.16138205 -0.08600054 0.1163676
0000e0 4b c3 8e 3d d3 4c 1b bf 54 38 0d be 42 6b ff 3d
       0.06970843 -0.606641 -0.13791019 0.1247163
0000f0 a1 72 cb bd 19 7d 6f 3e f1 c3 80 3e c4 9f d5 3c
       -0.09933973 0.23387565 0.2514949 0.026077159
000100 f3 52 e2 be b9 db d9 3c 5c 82 5f 3d 39 04 0d 3e
       -0.4420391 0.02659403 0.05456768 0.13771142
000110 9b 34 42 3d d5 9d 38 bf 70 47 1f 3c da 4c c0 3e
       0.04741345 -0.7211583 0.009721622 0.37558633
000120 8c 84 91 be 82 36 b1 3e 66 03 8b bd f7 25 a0 bd
       -0.28421438 0.346119 -0.067877576 -0.07819741
000130 e1 83 94 be 05 ca a5 bf 45 d4 ea bc 00 4a f4 39
       -0.29006866 -1.2952276 -0.028665671 0.0004659444
000140 a6 c2 57 be 02 db 0e 3e 1b 4f 04 3e c2 8a 93 3d
       -0.21070346 0.13950732 0.12920801 0.072042
000150 05 c1 85 be 4f 3c a7 3d 46 0b d5 3d 15 2f d0 bc
       -0.26123825 0.081658 0.10402541 -0.025413075
000160 b8 48 52 be c0 ad 30 bf 28 25 ba 3d ee 16 d3 3e
       -0.20535553 -0.6901512 0.09089118 0.4122843
000170 26 8a 6a be e8 cc 8b 3e f7 be e5 3d ae 0b f9 3d
       -0.22904262 0.2730477 0.11218064 0.12160431
000180 f0 35 9c be 6e 44 86 bf 24 7c 28 3e a0 06 d2 3d
       -0.305099 -1.0489633 0.16453606 0.1025517
000190 d1 92 35 3d 8a 37 1c 3e 08 30 75 3e 34 79 0c 3e
       0.04432947 0.15255561 0.23944104 0.1371811
0001a0 24 05 50 be b4 a2 3e 3e b5 69 91 bd 28 b5 a7 3b
       -0.20314461 0.18616754 -0.0710024 0.005118031
0001b0 c2 35 97 be 43 e1 b8 be ea 64 4d bd 35 f5 57 3e
       -0.295332 -0.3610936 -0.050145067 0.21089633
0001c0 32 5c 91 be 33 bc 6b 3e 67 c8 24 bd f8 1a 43 3d
       -0.28390652 0.23021011 -0.04023018 0.04763314
0001d0 d1 f4 54 be 3e 88 83 bf 27 be 24 bd 9e d3 b7 bd
       -0.20796515 -1.0275953 -0.040220406 -0.0897591
0001e0 16 5d c7 bd 8f ce 53 3e 90 81 78 3e 01 a8 a1 3d
       -0.097345516 0.20684265 0.24268174 0.07893372
0001f0 82 bb 70 be 21 1b 26 3d 4a e4 9c bd 13 17 c6 3c
       -0.23509029 0.040553216 -0.0766073 0.024180925
000200 10 a8 19 bd dd 0f 57 bf 58 b3 80 bc af 46 e1 3e
       -0.037513793 -0.8400858 -0.015710518 0.4399924
000210 c5 a2 c0 be f6 08 89 3e 9a c7 b5 bd 14 fd 43 bd
       -0.37624183 0.2676465 -0.088759616 -0.047848776
000220 c0 08 42 be 2c 17 84 bf 7b 38 75 bc 80 da e5 3a
       -0.1894865 -1.0319571 -0.014967079 0.0017536432
000230 be 28 44 bd b4 3e 59 3e 5c 45 bf 3e 57 f6 50 bb
       -0.047890417 0.21215326 0.37357605 -0.0031885111
000240 9d dc 02 be 20 29 84 3d 40 bc 8f 3d 37 cb bb bd
       -0.1277947 0.064531565 0.07018328 -0.091696195
000250 46 b9 8a be 28 24 49 bf 4a 0b 46 bd ff e8 b2 3e
       -0.27094477 -0.78570795 -0.04835061 0.34943387
000260 05 a6 a1 be aa ec d1 3e 85 d2 99 ba d4 3a e1 3d
       -0.31571975 0.41000873 -0.0011735713 0.10997549
000270 a2 7f 30 be c6 03 95 bf a9 22 57 3d e2 7e 70 bd
       -0.17236188 -1.1641777 0.05252329 -0.058714755
000280 2b 92 a9 3d 93 b0 e4 3d bc 60 ac 3e 91 64 92 3d
       0.082798325 0.11166491 0.33667552 0.07148088
000290 85 31 d6 bc 8f a3 50 3e f6 6b 96 bd 5e a2 d6 bd
       -0.02614666 0.20374893 -0.07344811 -0.10480188
0002a0 f2 71 25 be de 86 07 bf d4 a4 d0 bd e0 09 82 3e
       -0.16156748 -0.52940166 -0.101876885 0.2539816
0002b0 1a dd 85 be 8f ff 5d 3e 0d 71 c5 bd 1a 2d ea bd
       -0.2614525 0.21679519 -0.09640703 -0.11434384
0002c0 43 7e 13 be 17 3b 67 bf 4c 22 c5 bd fa 83 3a bd
       -0.14403634 -0.9032454 -0.09625682 -0.04553602
0002d0 b1 25 09 bd 1d 0d cc bc 00 88 7e 3d 41 e4 09 be
       -0.03348321 -0.024908597 0.06214142 -0.13465978
0002e0 6e 37 03 3c 1c d2 17 be 62 3f 9c 3d 49 34 08 be
       0.008008821 -0.14826244 0.07629277 -0.13301195
0002f0 f4 bc 1b bb 5d d2 91 bd 17 46 02 3e 08 f0 33 3d
       -0.0023763748 -0.07120202 0.1272205 0.043930084
000300 af 64 f1 bc 5a f4 b6 3d 4a 22 d4 bc 94 29 8d bc
       -0.029466955 0.08933325 -0.025895257 -0.01723174
000310 9f b2 4b bd 16 82 d4 bd 54 3b 12 be dc 47 f2 bd
       -0.049730893 -0.103763744 -0.14280444 -0.11830112
000320 d0 25 e7 bd 7c 8a cf bd a8 3f d1 3d f4 6e 71 bd
       -0.11286509 -0.10133836 0.102172196 -0.058943704
000330 1c ea 1c 3d 3a 99 66 3d fb b6 b8 bd 8d 98 c2 bd
       0.0383092 0.056298472 -0.09019276 -0.09501753
000340 7d 71 f1 bd 16 e5 97 bd 48 1e 79 3d db a1 cd bd
       -0.11789224 -0.074167415 0.060819894 -0.10040637
000350 72 54 d1 3c cc bf 1e bc 69 ab 94 3d 3a bb b8 bd
       0.025552962 -0.009689283 0.072592564 -0.09020086
000360 1a 95 81 3d 08 3c 1e bd 51 bd 99 3d ec d4 e0 bc
       0.06327267 -0.03863147 0.07506812 -0.027445279
000370 a3 8f 83 3d fa e1 06 be 39 29 3f 3c 30 a0 e4 bd
       0.06423881 -0.1317214 0.011667543 -0.11163366
000380 ef 0e 28 3a 65 f3 de bd fc f7 d4 3d 4f 68 05 3d
       0.00064109167 -0.108862676 0.10398862 0.03257018
000390 b3 ef 75 3d a7 68 a2 bd f0 85 08 bc db 82 b4 bd
       0.060043048 -0.07930117 -0.008332714 -0.08814021
0003a0 cd 72 95 bd 9b 70 c3 3d 5d 80 2e be 1c 68 20 3d
       -0.07297287 0.09542962 -0.17041154 0.039161786
0003b0 62 bd c0 bc 5c a6 17 be cf 19 a0 bd 68 f3 8b 3c
       -0.023527805 -0.14809555 -0.078174226 0.017083839
0003c0 51 29 08 3c ed 33 ac bd 55 37 a6 3d cf 8d 95 3d
       0.008310632 -0.084083416 0.081160225 0.073024385
0003d0 fa 9b 3e 3d 43 5a d3 bd 78 56 b6 3d e3 77 90 3c
       0.04653547 -0.103199504 0.08903211 0.017635291
0003e0 8e 0e 96 bd 91 5b 3f 3d fc 24 a0 3d 75 68 5e 3d
       -0.07326995 0.046718184 0.07819554 0.054298837
0003f0 cd a8 62 3d 0f da b3 bd 93 cb ad bb fe a5 87 bd
       0.055336762 -0.08781826 -0.005303809 -0.06623457

sequential_2/conv2d_10/Conv2D f4 [20, 3, 3, 20]
000000 df 46 5e 3e 13 a4 0e bd 86 f9 9d bd 3e 83 33 bf
       0.21706723 -0.034824442 -0.077136084 -0.70122135
000010 20 bf 6f 3e eb e9 da be 41 55 d8 bd 13 5f 03 3e
       0.23412752 -0.4275659 -0.10563136 0.12829237
000020 30 6b 1a 3d 85 0f c3 be d2 3a 73 bd a0 29 6d 3c
       0.03769988 -0.38097778 -0.059382267 0.014475256
000030 0a a2 19 bf 44 7b 91 be 33 4a ef bc da 70 51 3e
       -0.60012877 -0.28414357 -0.029210186 0.20453206
000040 5d d1 1d bf 9d 58 c6 bb b0 21 bd be a2 f1 97 be
       -0.6164759 -0.006053044 -0.36939764 -0.2967654
000050 a3 45 d7 3c 9b 2d cf bc 03 5e 16 3e 54 5a ef be
       0.026278323 -0.025290301 0.146843 -0.46748602
000060 b0 f7 76 3e ed fe 3a be 2c d5 3f 3e 20 63 c6 3d
       0.24117923 -0.18261309 0.18733662 0.09686875
000070 dd fc 43 bd 95 03 19 be 93 88 0d 3e e3 61 21 bc
       -0.04784857 -0.14942773 0.1382163 -0.009849998
000080 f0 33 05 bf f9 26 d1 3d 3d 86 1e be ba a5 53 3d
       -0.52032375 0.102125116 -0.15480895 0.05167172
000090 0d 94 c3 be 29 99 6e be 42 11 81 be 9e 87 76 be
       -0.3819889 -0.23300613 -0.2520848 -0.24075171
0000a0 a9 dc 79 3d 56 be 6c 3d 57 a1 19 bc fe b3 d4 be
       0.061001454 0.057798706 -0.009376845 -0.41543573
0000b0 5d 3e 2b bc 32 61 be be d5 3f 24 3e 57 13 18 3e
       -0.01045188 -0.3718353 0.16039975 0.14851128
0000c0 1e 36 f0 3d 9b e4 57 be 86 b9 aa 3d 6e bf b2 3d
       0.11729072 -0.210833 0.08336167 0.087279186
0000d0 bc 32 96 be f4 64 99 3d b7 f7 f5 bc 8b bc fc 3d
       -0.29335582 0.074899584 -0.030025346 0.12340649
0000e0 a2 33 c6 be ec b5 2a bd e0 d5 9a be 11 ee 32 be
       -0.38711268 -0.0416774 -0.302413 -0.17473628
0000f0 d8 17 9e 3d 96 b6 be 3d e0 d0 14 3e db 5c 7d be
       0.077193916 0.09312169 0.14532804 -0.24742453
000100 70 29 b9 3e 70 c5 b1 be 69 c1 e9 3d 80 e3 36 3d
       0.36164427 -0.34720945 0.11413843 0.044650555
000110 24 c4 6e bd 07 34 82 be 51 3f 29 3e 2d ea dd bd
       -0.058292523 -0.2543032 0.1652806 -0.10835681
000120 c2 e0 bc be f6 5b 9a 3d 77 c2 10 3d e6 b7 5c 3e
       -0.36890227 0.075370714 0.035341706 0.21554527
000130 c1 cd 91 be 73 a1 88 bd c5 f6 9d bd 23 14 7f be
       -0.2847729 -0.06671419 -0.07713083 -0.24910025
000140 73 3f a8 3e 4a 79 01 3e a1 2d ef 3e f9 bb 40 be
       0.32860908 0.12643924 0.467145 -0.18821706
000150 3e 6c c6 3e 80 d8 87 bd 00 08 32 3d 81 b0 38 3e
       0.38754457 -0.06633091 0.04346466 0.18036081
000160 d2 95 37 bd e1 a7 53 3e 35 05 cf 3e 3d 76 13 bd
       -0.044820614 0.2066951 0.4043366 -0.036001433
000170 36 d6 43 be d2 ac 95 3e ff c3 e2 bc ac 4a c8 3e
       -0.19124684 0.29233414 -0.027681349 0.3911947
000180 1a e2 df bd 34 e3 89 bd 5f 48 36 3e 68 a9 d5 bd
       -0.10931797 -0.06732789 0.17801045 -0.10432702
000190 82 2d ac 3e f7 e7 bb 3d 3a 09 aa 3e c5 00 02 be
       0.3362847 0.09175103 0.33210164 -0.12695606
0001a0 f9 3d 85 3e 11 11 51 be d7 16 3b 3e 1e d9 57 3e
       0.26023844 -0.20416667 0.18270431 0.21078917
0001b0 a2 f9 e6 3c b7 93 06 3e 05 2a 55 3e 99 b7 80 3d
       0.028195206 0.13142286 0.2081681 0.062850185
0001c0 c7 9c e0 be 12 24 99 3e 3d 69 d8 bd d9 78 f9 3e
       -0.43869612 0.29910332 -0.105669476 0.48725012
0001d0 a8 98 71 bc da 33 a5 3c 9f c1 ae 3d f2 e1 74 be
       -0.014745869 0.020166326 0.08533024 -0.23914316
0001e0 58 98 41 bd 28 cf c4 3d ba 92 0d 3e 2f d4 9c be
       -0.047264427 0.096098244 0.13825503 -0.30630633
0001f0 0a 52 27 3d 23 08 c3 be 3d 95 f1 bc 27 b6 e8 bb
       0.040849723 -0.38092145 -0.029490108 -0.0071017924
000200 af 6e da bb 37 c9 00 be 97 10 cb 3e 5e a0 5e bd
       -0.0066660265 -0.12576757 0.39661095 -0.054352157
000210 8a 2c 05 bf e2 ba d9 3d d5 a8 32 bd a5 e9 2e 3d
       -0.52021086 0.10631348 -0.043618042 0.04270329
000220 69 02 8f be e1 1b 8f bd 88 5d 6d be f9 9c 99 be
       -0.27931526 -0.06987739 -0.2318021 -0.30002573
000230 fb 41 72 3e 67 04 8c 3d e3 87 ac 3e 61 2f 8f bd
       0.23657982 0.06836777 0.33697423 -0.06991459
000240 da bc b1 3e d1 da 61 be 82 47 db 3b 16 d9 cf 3d
       0.34714395 -0.22056128 0.006691874 0.10148828
000250 36 97 c2 3b 92 cd 39 3e 59 76 20 3f 23 2f 68 bc
       0.005938436 0.18144825 0.62680584 -0.0141713945
000260 a9 10 cf be 06 9b fe 3e b1 32 3e bd 0a a2 fc 3e
       -0.40442398 0.49727648 -0.04643506 0.49342376
000270 a1 84 8c bd 14 f6 b5 bd 48 ba 26 3d 74 cf 44 be
       -0.068612345 -0.08884826 0.040704995 -0.19219762
000280 57 f9 8e 3e a3 17 8e bb 4b 19 bb 3e 78 cd b4 bd
       0.27924606 -0.004336314 0.36542735 -0.088282526
000290 5b 06 13 3f 3d b3 91 be 89 df 47 3e 24 19 1c 3e
       0.5743157 -0.2845706 0.19518866 0.15243965
0002a0 05 b3 09 3e 47 b7 a6 3d 8a 8a d9 3e 25 ff 37 bd
       0.13447197 0.08140426 0.4248851 -0.04492106
0002b0 06 46 eb be bf c4 2a 3f 3a f1 88 bc 50 77 26 3f
       -0.4595186 0.6670646 -0.016716588 0.65025806
0002c0 57 80 c2 bd 11 e2 a3 3c 3d 7a 28 3e 5d 4c 97 be
       -0.09497135 0.020005258 0.1645288 -0.29550448
0002d0 1e b7 e3 bd 3a 96 bb bd 32 0c a6 bd 1b 00 14 b9
       -0.11118911 -0.09159513 -0.08107795 -0.00014114419
0002e0 f7 c8 f1 3e 6d d5 b3 3d 04 83 12 3d 3d e1 16 bf
       0.47223637 0.08780942 0.035769477 -0.58937436
0002f0 a7 d8 9e 3d 6a 2e 80 3e 8b d7 6d 3f 5d 3c c2 3d
       0.07756167 0.2503541 0.9290702 0.0948417
000300 8f a1 08 3e 78 22 13 3e b7 7a db bc 3e 81 d2 bd
       0.1334288 0.14368618 -0.026791913 -0.10278557
000310 2e ac 24 3c 37 ec 8f bd 5e a9 a1 3c 68 fc 4c ba
       0.010050816 -0.07027476 0.01973408 -0.0007819594
000320 3c 30 00 be 4d c2 ac 3d bc 3a f5 bd f6 46 bb 3d
       -0.125184 0.084354974 -0.11974093 0.09144394
000330 aa a2 35 3f f2 8e 47 bd b3 2c e8 3d 30 9f e2 be
       0.7095133 -0.048720308 0.11336651 -0.44262075
000340 a7 f8 19 3e 53 d6 66 be 8a 9f d1 3e 57 a8 00 3e
       0.1503626 -0.22542696 0.4094203 0.12564217
000350 5e 15 36 3d 52 8e db 3d 97 4f 90 3d a0 30 f8 3c
       0.04445397 0.10720505 0.070464306 0.030296624
000360 9e aa f7 bd cf 62 04 be 9c 05 05 3c 73 6f 8f 3d
       -0.120930895 -0.12928317 0.008119013 0.07003679
000370 bf fe 35 3d 28 9c d7 bc 83 71 df bd 68 55 44 3d
       0.044432398 -0.026319578 -0.109103225 0.047933012
000380 d3 9c d0 3e be 4f ab bd 5d 76 d3 bc a4 f2 2a bf
       0.40744647 -0.08364819 -0.025813276 -0.6677649
000390 bc da 90 bd 7d 45 93 be 25 4f 1b be 19 8e d9 bd
       -0.0707297 -0.28763953 -0.1516691 -0.10622806
0003a0 27 15 72 3d 7c e2 d7 3c db 5c 8b 3d 7f 92 3d 3e
       0.059102204 0.026353113 0.0680482 0.18512915
0003b0 cf bc d6 3c 84 e2 76 3c 25 c2 02 3e 1e 6b b7 3d
       0.026213078 0.015068654 0.12769373 0.08955978
0003c0 8b 7f 11 3e 37 aa 9d 3d d0 ee 1a bc 88 09 86 3d
       0.1420881 0.076984815 -0.009456351 0.06544787
0003d0 34 ed cf be 40 cc b4 bd 4b c4 7b be 9b 68 ad be
       -0.4061066 -0.0882802 -0.24586599 -0.3386887
0003e0 d4 31 ff 3d 82 5b be 3e fc 16 17 3f d2 05 e0 bc
       0.12460676 0.3717919 0.59019446 -0.027346525
0003f0 c4 6e 11 3e 85 a3 8a 3e 89 09 80 bd b7 04 85 bc
       0.1420241 0.2707788 -0.06251819 -0.0162376

sequential_2/output_layers/BiasAdd/ReadVariableOp f4 [4]
000000 ab 56 b1 be 51 e1 12 3f 58 c2 ee bd a1 91 f0 bd
       -0.34636435 0.57375056 -0.11658162 -0.117465265

sequential_2/output_layers/MatMul f4 [4, 20]
000000 e9 9c 99 3e c4 52 f1 be 15 e6 d8 bf 15 0a 04 3e
       0.30002525 -0.47133458 -1.6945215 0.12894471
000010 e9 08 4f 3f 32 1b 1a 3f 0b fa 81 3e 4e f4 6b be
       0.8087297 0.60197747 0.2538608 -0.23042414
000020 05 fd f9 3d 4a ce bb 3d 73 03 98 be 26 18 ba be
       0.12206463 0.09170206 -0.29690132 -0.3634655
000030 45 1a 9c bb f7 06 fb be 33 21 1c 3f ff f6 2d be
       -0.0047638738 -0.4902875 0.6098816 -0.16988753
000040 aa dc 88 be 93 ad 86 3e e0 1c 6d be 20 06 87 bf
       -0.26730853 0.26304302 -0.23155546 -1.0548744
000050 43 8e 64 bf 0c ca 68 bf 52 6b 74 3e 34 13 39 bf
       -0.89279574 -0.909333 0.23869064 -0.72294927
000060 d4 5d 07 3e e0 85 19 bf f9 0f 16 3f 1b b4 f6 bd
       0.13219386 -0.599699 0.5861812 -0.12046071
000070 6a dd 42 3d de 04 90 bf 16 f8 2c be d0 d9 c9 3e
       0.04757444 -1.1251485 -0.16891512 0.3942399
000080 b2 63 1a bc 10 94 49 bf 8f d5 c1 bd 67 d8 a6 be
       -0.009423183 -0.7874155 -0.09464561 -0.32586977
000090 ae 3a fc be 29 0b 4d be 44 b3 43 be f5 74 b3 be
       -0.4926352 -0.20023789 -0.19111353 -0.3505017
0000a0 29 c5 f4 be ba 90 d0 3e cd a8 07 3f 8c 57 39 3f
       -0.4780667 0.40735418 0.52991945 0.7239921
0000b0 89 4e 32 be 92 fd 16 bf 4f ed 3b be 32 f2 c4 3e
       -0.17412771 -0.5898067 -0.18352245 0.3846603
0000c0 d2 6d c9 3e f3 af e9 3e f3 1f 53 3f 21 f2 22 be
       0.393416 0.4564205 0.82470626 -0.15912677
0000d0 90 04 1f 3e d2 cf 22 3f 99 ff 9a 3e 1e b8 9e 3d
       0.15529084 0.6359836 0.3027313 0.07749961
0000e0 bf 91 cd be fa 72 30 bf cb f4 31 bf 7b ae 3b 3f
       -0.40150258 -0.6892544 -0.6951415 0.7331311
0000f0 1d 57 4a 3e db 00 1a 3e 54 35 a7 3d 18 8f 0b bf
       0.19759794 0.15039389 0.081644684 -0.5451522
000100 f7 1b 8a bf cb 1e 02 be 94 23 01 bf 17 0f ab bf
       -1.0789784 -0.12707059 -0.5044491 -1.336398
000110 96 fe c6 3e 48 aa 97 3e 29 9d a7 be 5a db 96 3e
       0.3886611 0.29622102 -0.3273709 0.29464227
000120 6f 6b 84 bf 5c 2c dd 3e a4 dc 8d bf 64 d4 b7 3e
       -1.0345286 0.43197906 -1.1082959 0.3590423
000130 5a 45 ad 3e 4d 66 27 3e 8a e4 90 3e f8 b9 6e be
       0.33841974 0.16347618 0.2829936 -0.23313129
