ML_deseases/tfliteModels/potato.tflite (tflite, 417100 bytes, 12 tensors)

model4/cnn_model/conv2d/Relu;model4/cnn_model/conv2d/BiasAdd;model4/cnn_model/conv2d_2/Conv2D;model4/cnn_model/conv2d/Conv2D;model4/cnn_model/conv2d/BiasAdd/ReadVariableOp f4 [32, 3, 3, 3]
00000000: 6035 8739 4c9a b239 de6e 99b9 273f 093a
00000010: 6ce3 d639 97ff d1b9 9a87 d8b9 49ae f339
00000020: f988 98b8 8c6e 203a d771 5eb9 1c78 21b9
00000030: 0e8e d7b9 360b bd39 aead dc38 fd30 8e39
00000040: e912 0bba 4e32 dfb9 3186 d439 c7fd d539
00000050: 0794 28ba 9709 a539 8a30 bab9 1355 22ba
00000060: 392d 1438 8083 c5b8 038c 26b9 c1c6 453a
00000070: 030f 9c3a aa2c f039 8d75 80b9 89a4 69b9
00000080: 0f1d 11ba bb25 083a e778 8439 3cf0 8b3a
00000090: 96be 1abb 085e d3ba f94f c9ba 91a0 03bb
000000a0: fa52 1abb 17e8 0abb eada 2239 4836 8d39
000000b0: 0a35 e439 24c7 24bb dc70 28bb 9ddb 30bb
000000c0: 83f3 e2ba f7ce 21bb 2741 22bb abac 67b9
000000d0: 1d63 34b9 bb04 79b9 f39c 2ab9 a42c 213a
000000e0: 88ab a939 e087 43bb 97b5 57ba e45c 7039
000000f0: 54d3 12bb 23de 8038 ef8a 9439 7a9e 4339
00000100: de76 6839 3a1b c339 e3db e8ba c5ad 38ba
00000110: 8594 c3b9 91a1 54ba 8802 25ba 51dc 8139
00000120: aeb6 62b9 cf39 1d3a a1e0 b739 5e05 dfb9
00000130: 91b8 093a 35c8 ad39 d895 e0b9 021c b239
00000140: 774b 6539 c07b ef38 c281 11ba fca6 cd39
00000150: 9fed a739 b084 fdb9 1543 9e39 3529 1e39
00000160: 5f6c 37ba 8ac1 9b39 698c 4b39 4f89 22ba
00000170: d273 bab9 762d f7b8 bcfb 66b9 d492 123a
00000180: 8fa8 213a 612a f3b8 a725 203a f430 1bb9
00000190: 5470 42b9 82de 223a b640 033a 9220 df38
000001a0: 041a 6439 3289 1b39 766c 5bba 4258 5eb8
000001b0: 3f10 03ba 26ae 0d3a f4be 3d3a bf3b 93b9
000001c0: 3e64 8538 26d6 9039 6210 4dba c673 cfb9
000001d0: 0f39 0eb9 77f9 113a 3da1 143a 56c7 d439
000001e0: 0085 8739 418d 8eb9 4057 67b9 fa7c 01ba
000001f0: 2045 c939 7e6a 1b39 0e3f c0b9 db9c 44b9
00000200: fd8c bcb9 e725 4d39 709e edb7 bdf0 0bb8
00000210: 5292 b8b9 80ad 8ab9 10ec 0bba 559d ef39
00000220: 6579 343a 74f0 073a 6164 8038 c21a 9839
00000230: 7004 fc39 d1a1 4339 5ae4 cdb9 b9a8 c6b9
00000240: d9d4 0e39 e6b4 ca39 97c9 35b9 5b1a 43ba
00000250: 32b8 9fb9 de49 b9b9 9003 ea37 e325 84b9
00000260: 18b3 c9b9 8f22 84b7 27e5 c0b9 6839 a937
00000270: c026 93b9 3769 a3b9 44de 18ba 4197 0aba
00000280: 380d 22ba 6bb4 66ba e767 7839 da3e a6b9
00000290: ce2b d6b9 690b 8538 4f50 0eb9 ef06 0cba
000002a0: 8d70 7a38 00e4 82b7 cff2 27b9 be62 d9b7
000002b0: c0fa d239 9b21 34ba b703 88b8 d063 2439
000002c0: 336c 0cba 8c07 fbb9 c593 b5b8 c8f9 c2b9
000002d0: 830f b6b8 6a23 a939 0eec 5439 7205 f239
000002e0: 565e e336 2942 c539 7fa9 b539 8aad ed39
000002f0: c5e2 8f38 fc82 c939 9555 5138 d3e9 21b9
00000300: 0357 a339 471f a0b8 8975 c239 9698 46b8
00000310: 4c3c 2639 82bc e3b9 c7b8 6e39 ea9a a9b9
00000320: 5f80 b439 4f40 9f38 c919 acb9 bd99 e739
00000330: d179 e839 c441 f8b9 0c41 5d39 3e22 17ba
00000340: adeb 45b9 d6b2 90b9 9623 ccb8 5873 d2b9
00000350: 6572 8439 c355 a5b8 ba02 dfb9 6f52 59b9
00000360: a82a d538 851d c738 55c5 eb39 b75b 1039
00000370: ee11 133a de78 6a39 3f8f 533a d030 553a
00000380: 7907 6c3a f74d 6eb8 9f88 c3b9 9d83 25b9
00000390: 1921 06ba 708a 9939 0c3a 44b8 b3b5 7cb9
000003a0: ba9b bbb5 5b2d 033a 2cee cdb8 fe08 60ba
000003b0: ac1b 1aba 2b5a 2eba 61c4 86ba 06e5 2aba
000003c0: 0056 18ba b189 46b9 601f 73ba 2e3f f2b9
000003d0: 2706 8339 8c56 afb9 8ef6 e7b9 99ba a8b9
000003e0: 54da a239 107b e639 6eee e838 9283 49b9
000003f0: 308b bcb9 146d 7db8 a979 a4b9 6890 07b9
0.00025788974 0.00034065766 -0.00029265037 0.00052355457 0.00040986703 -0.00040054016 -0.00041299762 0.00046478424
-7.273438e-05 0.00061199884 -0.00021213978 -0.000153989 -0.00041113835 0.00036057242 0.00010522768 0.0002712085
-0.0005305247 -0.00042571354 0.0004053577 0.00040815605 -0.0006430749 0.00031478397 -0.0003551285 -0.00061924866
3.5328067e-05 -9.418186e-05 -0.00015883152 0.000754457 0.0011906329 0.00045809645 -0.00024501645 -0.00022281906
-0.0005535641 0.00051936106 0.0002526708 0.0010676454 -0.0023612133 -0.0016126046 -0.0015358917 -0.0020084719
-0.0023547993 -0.0021195465 0.00015531076 0.00026934058 0.00043527066 -0.002514311 -0.0025702035 -0.0026986368
-0.0017315004 -0.002469001 -0.0024758072 -0.000220942 -0.0001720306 -0.00023748253 -0.00016270932 0.00061483146
0.00032361993 -0.0029835626 -0.0008228658 0.00022922788 -0.0022403793 6.144892e-05 0.00028332273 0.00018655686
0.00022169526 0.00037213584 -0.0017765727 -0.00070449366 -0.00037303954 -0.00081112335 -0.00062946277 0.00024768946
-0.00021621093 0.0005997689 0.00035071842 -0.00042537873 0.0005253638 0.00033146297 -0.00042836252 0.00033971673
0.00021867255 0.00011419458 -0.00055506465 0.0003922506 0.00032029764 -0.0004835478 0.00030186088 0.00015083405
-0.00069970445 0.00029708102 0.00019411895 -0.000620027 -0.00035562977 -0.000117863456 -0.00022028288 0.0005591337
0.000616678 -0.000115950366 0.0006109126 -0.00014800188 -0.00018543127 0.0006212966 0.0005006896 0.00010639535
0.00021753466 0.00014833061 -0.0008370349 -5.301112e-05 -0.0004999674 0.0005404673 0.0007238232 -0.0002808254
6.360606e-05 0.00027625373 -0.00078225706 -0.00039568375 -0.00013563431 0.0005568484 0.00056697783 0.00040584308
0.000258483 -0.00027189593 -0.0002206238 -0.00049395824 0.0003838921 0.00014821623 -0.00036668073 -0.0001875045
-0.000359632 0.00019564443 -2.832638e-05 -3.3364387e-05 -0.00035204232 -0.0002645068 -0.0005337605 0.00045702854
0.0006884544 0.00051856716 6.122213e-05 0.00029011635 0.00048068492 0.0001865693 -0.00039270782 -0.0003789121
0.00013621467 0.00038663222 -0.00017336603 -0.0007442587 -0.0003046408 -0.00035340985 2.7896633e-05 -0.0002520523
-0.00038471143 -1.5751719e-05 -0.00036791826 2.0173102e-05 -0.00028066896 -0.00031168174 -0.000583146 -0.0005286821
-0.00061817793 -0.0008800688 0.0002368983 -0.00031708815 -0.00040849898 6.3440595e-05 -0.00013572093 -0.00053416094
5.9709466e-05 -1.5603378e-05 -0.00016016814 -2.5914396e-05 0.00040241145 -0.00068714627 -6.485677e-05 0.00015677442
-0.0005356699 -0.00047880074 -8.658277e-05 -0.00037188665 -8.6813256e-05 0.00032260577 0.00020305833 0.00046161894
6.7761093e-06 0.0003762406 0.00034649295 0.0004533346 6.8610105e-05 0.00038435298 4.9909188e-05 -0.00015441263
0.00031154611 -7.6352204e-05 0.00037090134 -4.7348985e-05 0.00015853456 -0.00043437263 0.00022766284 -0.00032349612
0.0003442792 7.593689e-05 -0.00032825608 0.00044174297 0.0004434125 -0.00047351245 0.00021100434 -0.00057652954
-0.0001887518 -0.00027599063 -9.7341064e-05 -0.0004014026 0.00025262233 -7.8837875e-05 -0.00042535906 -0.00020725442
0.00010164577 9.494558e-05 0.00044969717 0.00013767077 0.0005610277 0.00022361006 0.00080703566 0.0008132579
0.0009003799 -5.6816232e-05 -0.0003729509 -0.00015784656 -0.0005116626 0.00029285578 -4.6784102e-05 -0.00024100281
-1.3977908e-06 0.0005004012 -9.819525e-05 -0.0008546262 -0.0005878757 -0.00066510093 -0.0010281914 -0.00065191125
-0.0005811155 -0.00018934046 -0.00092743896 -0.0004620491 0.0002499085 -0.00033443084 -0.0004424345 -0.00032182483
0.00031061715 0.00043960707 0.00011107033 -0.00019217868 -0.00035961857 -6.0421487e-05 -0.00031371161 -0.00012928399

model4/cnn_model/conv2d/BiasAdd/ReadVariableOp f4 [32]
00000000: 0069 fbbd af8b bf3d 50a9 e53c 3222 6dbb
00000010: 7307 323d baf8 9d3b 1bae 66bd cdc7 fdbc
00000020: 2878 d3bc 0fc6 5cbc 60a8 25bd ca47 21bc
00000030: f301 2fbd e585 aabc 02b7 61bd e1f0 44bd
00000040: 281c 89bd ef56 c73d 9a3c a93c 2ecb b6bb
00000050: 09d2 3abd 5948 0cbd 3024 cbbd b2e3 82bc
00000060: 79f6 febd 2033 f8bb b4e6 abbc 672c 5dbb
00000070: 6c96 253d 3508 fabc c0c0 a7bc 57b0 49bb
-0.122758865 0.093528144 0.028034836 -0.0036183712 0.043464135 0.0048209103 -0.056318384 -0.030979061
-0.02581413 -0.013474955 -0.040443778 -0.009843776 -0.04272647 -0.020815799 -0.05510617 -0.048081283
-0.066948235 0.09733378 0.02065878 -0.00557842 -0.04561046 -0.034248684 -0.099190116 -0.015977714
-0.12449355 -0.007574454 -0.020984031 -0.003374839 0.040426657 -0.030521492 -0.020477653 -0.0030775273

model4/cnn_model/conv2d_1/BiasAdd/ReadVariableOp f4 [16]
00000000: 9ae2 f6bd f685 2bbd 71ad 50bd 1985 5bbd
00000010: e171 58bd f158 1fbe fe20 683d 3c1d 0abe
00000020: 080f d5bc 7484 393e 60d5 babb 9ab1 17be
00000030: 4f50 e03c 0542 d6bd 3c80 5f3d 86b7 003e
-0.120549396 -0.041875802 -0.050946657 -0.05359373 -0.05284298 -0.15561272 0.05667209 -0.13487715
-0.026008144 0.18116933 -0.005701706 -0.14813843 0.027382044 -0.10461811 0.054565653 0.12570009

model4/cnn_model/conv2d_2/BiasAdd/ReadVariableOp f4 [32]
00000000: 746f efbd b5ec 98bd 28d0 93bc 2bfb 15bc
00000010: 1f91 2abd e6a5 d13c 135f d3bd 5563 40bd
00000020: 61c6 0ebe c0c1 723d 7153 4cbc aac1 21bc
00000030: 877a 453d 8d8e 813d 7826 d4bc 659d 4e3c
00000040: 7d5b c7bc 22b8 84bd 8074 153c d64a bdbd
00000050: bb3c 54be de7f 34bd 9f8b b73c f0bb e1bc
00000060: 723c 663a 344a 4dbd 6e08 223b 40c9 7abd
00000070: b041 8a3d c78d 8cbd 7869 a0ba 3f74 393c
-0.1169118 -0.07467023 -0.018043593 -0.009154121 -0.041642305 0.025591802 -0.10320868 -0.04696973
-0.13942863 0.059266806 -0.012471066 -0.009872833 0.048212554 0.063260175 -0.02589725 0.012610768
-0.024335617 -0.06480433 0.009122014 -0.092427894 -0.20726292 -0.044067256 0.022405444 -0.027555436
0.0008782811 -0.050119594 0.0024724263 -0.061227083 0.0675081 -0.068629794 -0.0012238463 0.011319219

model4/cnn_model/conv2d_3/BiasAdd/ReadVariableOp f4 [64]
00000000: 7885 03bd 4f32 05bd 623b 66bd f57f 323e
00000010: 248b 783d cc14 c4bd 8334 12bd d229 ebbc
00000020: b08b 45bc 0669 39bd cb01 153c 513c 2a3d
00000030: dd5e 8dbc f601 b33d 1335 f3bd a346 ab3d
00000040: fe78 b03c d04b 9dbd 4fef dabb be9c 03bd
00000050: 08d3 1abe 2ea9 03bc acd9 27bd c1d5 99bb
00000060: b088 f4bc 5059 aabc 02b7 433d bce1 ca3c
00000070: 1e39 e23c 0b9c c7bc 351f a3bd 524e 503d
00000080: cea2 993d 9ede 393d 91ec 1abd 2b1e a8bc
00000090: 04c0 c33b 1450 823c 7f39 9d3d ae4b 08bd
000000a0: aaee 9a3c 13fd 79bd da86 323d 7a9c a5bd
000000b0: d780 0cbd 8207 67bc 17e3 ba3d 09dc 8e3d
000000c0: 3b0f 9b3d c779 06bd 8b7f 09bd e20b f93c
000000d0: 1f93 8bbc 65f8 5b3d cf8f 83bd d8f6 5e3d
000000e0: c1c4 563d 2042 3a3d ad14 223c 2f4a 4abd
000000f0: 4d7f 453d 024c 6bbd 0aba 1ebd 552b 073d
-0.032109708 -0.03251868 -0.056208976 0.17431624 0.06067957 -0.09574279 -0.03569461 -0.028706465
-0.01205723 -0.045266174 0.009094666 0.04156143 -0.017257148 0.087406084 -0.118753575 0.08363082
0.021542069 -0.07680476 -0.00668136 -0.032131903 -0.15119565 -0.008035941 -0.040979072 -0.004694671
-0.029850334 -0.02079454 0.04778195 0.024765842 0.027615126 -0.0243664 -0.07964937 0.050855942
0.07501756 0.04537832 -0.037823264 -0.020522198 0.005973818 0.015907325 0.07676982 -0.0332753
0.018912632 -0.061032366 0.043585636 -0.08086486 -0.03430256 -0.014100911 0.09125345 0.06975562
0.07571264 -0.03283098 -0.0335689 0.030401174 -0.017037926 0.053703684 -0.06423914 0.054434627
0.052433733 0.045473218 0.009892625 -0.049387153 0.048217107 -0.057445534 -0.03875164 0.03300031

model4/cnn_model/conv2d_4/BiasAdd/ReadVariableOp f4 [128]
00000000: d920 c5bc 3f79 f83d e1f5 4c3d 3523 a8bb
00000010: b88e fdbc 3235 d83d 1ab6 d6bc ef26 cdbd
00000020: 74d3 abbd c7ed c1bd 24c8 aabc 0c89 f5bd
00000030: 6a89 50bd 373d 833e 830f 533e fc3c 64bc
00000040: f021 0bbc 8ee0 3a3e 8e80 36bd 5807 d1bb
00000050: 4b54 09be 2be4 ab3c 91c5 d7bd 8d9c 07bc
00000060: 6bfb de3b c836 16bc c85b 003e 886b bcbc
00000070: 5e15 cd3d 9e2d 90bd 2ee8 9a3d 3029 873e
00000080: b416 813c f68a c63d b777 053c eac7 ebbb
00000090: 6635 0e3d c026 77bc dbcd 083e d810 4abb
000000a0: 6849 d43c 4fab bdbd 6680 ac3d cacc ddbc
000000b0: e2e4 793e 0d3b b3bd 187a 53bd 6c25 293e
000000c0: 1dbf 9bbc 9ef9 713d b2f8 ba3d 3327 5fbd
000000d0: 4437 2cbd 07a7 7b3d 0a63 61bd 8a56 3bbc
000000e0: 89e6 38bd 51ed d9bc 0f0f 903c 5509 483c
000000f0: 0761 a5bd d317 e23b 95cc a83d aded 0a3e
00000100: f2d7 b23c c9b2 d23b 018b 45bd 48bb 96bb
00000110: 94c5 cdbd 745a 7abb 7b92 44bc be67 a43b
00000120: b6ef 9ebd f257 903c 6b67 f6bc 2881 043d
00000130: fe01 9d3b cb69 7dbd 45f0 b7bd 4ffb 2d3e
00000140: 506b cabc 73b2 d0bd bd5b 22bd 8af9 ecbb
00000150: 775c 0b3d f2eb c4bd fd08 fe3c 7681 233d
00000160: ead2 29bd add9 723d 7980 0dbc f974 5b3d
00000170: eea7 3cbc baff 5abc ee31 bbbd b0d5 dcbc
00000180: ffba 8e3c b5ba eebd 7407 e0bb 01c1 87bd
00000190: 06cf 3c3e 60f3 183d 7f01 003e 6ab2 0ebd
000001a0: 5ce4 babb eb55 0b3d 740b e1bd 4918 13bd
000001b0: e348 48bd ef82 a8bd f4b9 c13c 90ac bcbc
000001c0: 2ed5 36bd d1bf 83bc c31b 9c3d 718e 003d
000001d0: fe7e 22bd c31a 92bd 8cb2 403e 3658 4d3e
000001e0: f7b8 7b3c 63ca 803e a2eb b13c ce8a 12bd
000001f0: cdca adbc bd88 ab3d 304c 54bd 3c9e dd3d
-0.024063515 0.12132501 0.050039176 -0.00513115 -0.030951843 0.10557021 -0.02620988 -0.100171916
-0.08389941 -0.094691806 -0.020847388 -0.1198903 -0.0509123 0.2563264 0.20611386 -0.013930555
-0.008491978 0.18249723 -0.044556193 -0.0063790493 -0.13411061 0.020982822 -0.1053573 -0.008277071
0.0068048737 -0.009168334 0.12535012 -0.023000494 0.10013841 -0.07039951 0.07563816 0.2639861
0.015757896 0.096944734 0.008146218 -0.0071954625 0.034718893 -0.015084922 0.13359778 -0.0030832794
0.02591391 -0.0926119 0.084229276 -0.02707519 0.24403718 -0.087514974 -0.05163011 0.16518182
-0.019012028 0.059075944 0.09129466 -0.054480743 -0.042044893 0.061438587 -0.05502609 -0.011434207
-0.04514173 -0.02660242 0.017585305 0.012209256 -0.08075147 0.0068998127 0.08242146 0.13567229
0.021831486 0.0064300043 -0.048228268 -0.0045999624 -0.10047451 -0.0038200887 -0.011997814 0.00501725
-0.07760565 0.01762006 -0.03007861 0.032349735 0.0047914973 -0.06186847 -0.08981375 0.16990398
-0.024709374 -0.101902865 -0.03963827 -0.007231896 0.03402373 -0.096153155 0.031010145 0.039918385
-0.04146091 0.059289623 -0.008636587 0.05357835 -0.011514647 -0.013366634 -0.09140383 -0.026957363
0.017423151 -0.11656705 -0.006836826 -0.066286094 0.18438348 0.037341475 0.1250057 -0.034838118
-0.005703492 0.034017485 -0.10988513 -0.035911832 -0.048897635 -0.082280986 0.02364824 -0.023031503
-0.044636898 -0.016082676 0.07622483 0.031385843 -0.03967189 -0.07134011 0.1881811 0.20053181
0.015363923 0.2515441 0.021718804 -0.035776906 -0.021214867 0.0837569 -0.05183047 0.108211964

model4/cnn_model/conv2d_1/Conv2D f4 [16, 3, 3, 32]
00000000: b6b5 d93d 510d eabe c940 66be 2f4f fdbc
00000010: b362 013e bed2 1fbd 891b 503d 2e62 9fbd
00000020: d532 203e 3431 1fbc 732a f4ba 5652 1bbd
00000030: 7e47 c83d 67cb 403d 1c22 ca3d 6bbc dcbd
00000040: e123 ebbc 6bdd 6c3d 3219 95bd 9ed8 3dbe
00000050: 041e 0b3e beb6 3d3e d7fa 843c 5611 cabc
00000060: b3af 89bc 7b70 823d 3887 b93d ec4a e1bd
00000070: 0325 0dbd 03b8 0dbe 1208 b33c 3b3f 9b3d
00000080: cf34 9e3c 1887 d1be f285 8bbe e45b 8d3d
00000090: 39a7 d43d a626 853d c786 19bc f422 993d
000000a0: 4c28 a43d ac85 db3d f22c e23c dae9 853c
000000b0: eb31 243d a940 003d 904f cb3c b088 8c3d
000000c0: 8682 cabd ebfb 27bd 3106 c33b 56ce a4bb
000000d0: ab1b 543d 2adc 8e3d d766 f83c 7b25 703d
000000e0: fa1d 343c 3526 fa3c 0a60 4cbb c4f0 713d
000000f0: 3278 a03d f2b5 dbbb e028 a53d 16ca 163c
00000100: acfc 013e 4456 20be 5cff d8be 06fb 5cbc
00000110: 0699 62bc 242b ca3d 1cc0 1fbd af8c 933a
00000120: e8be 113e a5cb d8bd 6b2c bbbd 9f9d 5c3b
00000130: 82c8 d83d 7d41 833b 9179 c23d 2fba 41bd
00000140: d284 1f3d fe7f 9cbd f227 f13c b14d f4bd
00000150: d0aa dfbc cc54 0d3e 1b54 cb3d abbb 443e
00000160: 7e06 9dbb f8da 043d 9e9b 513d 5591 fb3c
00000170: f10b f83d b1e0 4b3d 443e 84bd ac54 66bc
00000180: fc88 bdbc 9424 97be 8bd0 5bbe af27 bf3d
00000190: ceb1 433e 0d42 9abb ce19 a23d c8d6 23bd
000001a0: 2bd0 05bd b01f 01be 924b eb3d 18f4 093d
000001b0: 57a6 4dbd cce5 afbd 1c4f 373c 45ba 1dbd
000001c0: 7e93 edbd c715 313d 20e7 39bd 7e08 cbbd
000001d0: e049 59bd 4b80 b43c 4223 f63d 19b6 0c3e
000001e0: 094b f33c 75e6 02bd 5e51 59bd 0be4 d83d
000001f0: ed38 ec3d 8347 debd 3d21 7c3d 57c4 093e
00000200: 2f9e 083a d764 4bbd be60 83be 7d31 813d
00000210: 4c4d 2f3e 982b 483d 7489 a2bc 6977 a0bc
00000220: b36a 2b3b 4568 943d d80d 41bc 7bdc 8b3c
00000230: e171 d5bd 126b a7bd 1c7a 92bd 19cb a3bd
00000240: 8329 a13c 3351 c9bd e0d2 2d3e d0f7 81bc
00000250: bee5 473d aeb0 443d 9ef1 b93c 215e 603e
00000260: 1fb9 13be 530e d9bc e60c d23d 2c51 c83d
00000270: 160c a03d c46a c2bd a674 233e fdc6 ec3b
00000280: c07a c2bd 6f6e 0fbd bc21 c7bd df0b 3a3e
00000290: 6ac1 0a3d 876f 2e3d 2cc8 31be cd5d f53d
000002a0: fd88 6e3e fb8c c7bd 266c 88bd 9351 2c3c
000002b0: 6df5 913d 1dd5 ee3d fd03 653d 65a1 113e
000002c0: 701b 26be b751 c23d d7bd 483d 8078 9c3b
000002d0: fca5 e6bb 6c98 f0bd a98b 4c3c 2218 7f3c
000002e0: 6179 b6bc 3fb8 e73d aca2 b1bd f18f 3ebd
000002f0: ff88 cfbb 2a83 6b3d 5b82 1c3d dfbc 32bd
00000300: aeaf b43b 3757 bebe cc46 08be 5676 41ba
00000310: cbae 043e ddd0 d73d bad4 98bc 72f5 6e3d
00000320: 6ac1 17bc 730e 8f3d 89b1 153d 2a6f 64bc
00000330: 7d0c 9e3c e157 fd3b c334 0abd 610b 90bd
00000340: d345 08be 74d3 a3bb 68ce 373e 75b0 24be
00000350: 73a4 f4bc 7022 d03d 4efd bdbd cc6d e3bd
00000360: 2bb7 0bbe 336a e0bc 2327 32bd fd38 6abd
00000370: 4925 ff3c 887e 74bd b112 ba3b c236 dcbd
00000380: 9310 1abd 84a4 9dbe 7142 a53d 35db 533d
00000390: 2498 453e 8af7 30bc f110 e43c 9449 52bd
000003a0: d87c 5abd aed5 943d dd8c a3bd 66dc f73d
000003b0: d371 5c3d 4d37 f6bd da60 dbbc 8387 22bd
000003c0: bfc4 edbd eff9 3e3e ab86 3c3e 5eba a3bd
000003d0: c052 e7bd 132c 9bbc a117 08bc ac67 8a3c
000003e0: e9c0 ecbd ac89 843b 71a5 263c 0a52 fabc
000003f0: e4a2 b2bc 55cb 7dbd e105 743c 081f dcbd
0.10630362 -0.45713285 -0.22485651 -0.030921547 0.12635307 -0.03901934 0.05080751 -0.07782398
0.15644391 -0.009716321 -0.0018628374 -0.03792032 0.09779261 0.04706898 0.09869787 -0.107781254
-0.028703632 0.057828348 -0.07280196 -0.18539664 0.13585669 0.18526742 0.016232891 -0.02466647
-0.016807413 0.0636911 0.09058994 -0.11000618 -0.034459125 -0.13839726 0.021854434 0.0758042
0.01931229 -0.4092338 -0.2725063 0.06902292 0.10383458 0.06501512 -0.009370512 0.0747737
0.080154985 0.10718855 0.027609322 0.01634686 0.040086668 0.031311665 0.024818212 0.068620086
-0.098881766 -0.041011732 0.005951666 -0.00502948 0.0517842 0.06975587 0.030322475 0.058629494
0.010993475 0.030535797 -0.0031185173 0.059067503 0.078354254 -0.006705039 0.08064437 0.0092034545
0.12694043 -0.15657908 -0.42382324 -0.013487583 -0.013830429 0.0987151 -0.03900157 0.0011257137
0.14232981 -0.10585717 -0.091393314 0.0033663285 0.10585119 0.0040056095 0.09495843 -0.0472967
0.038945027 -0.076416 0.029437993 -0.11928881 -0.02730313 0.13801879 0.09928151 0.19212215
-0.0047920337 0.032435387 0.0511738 0.030708948 0.12111653 0.04977483 -0.06457189 -0.014058273
-0.023136608 -0.29520094 -0.21466272 0.09333741 0.19110796 -0.004707581 0.07915078 -0.039999753
-0.032669228 -0.12609744 0.11489023 0.03368005 -0.050207462 -0.08588752 0.011188295 -0.03850772
-0.116003975 0.04323366 -0.045386434 -0.09913729 -0.05304897 0.022033831 0.12018444 0.1374134
0.029698865 -0.031958062 -0.053056113 0.10590371 0.11534295 -0.108534835 0.061555136 0.13453804
0.00052115595 -0.049656715 -0.25659746 0.06308267 0.1711933 0.0488697 -0.019840933 -0.01958819
0.0026156127 0.0724645 -0.011783086 0.017072907 -0.10422111 -0.08174719 -0.07152197 -0.07997722
0.019673115 -0.09829941 0.16974974 -0.015865237 0.048803084 0.048020057 0.02269822 0.21910907
-0.14426087 -0.026496088 0.102563664 0.09781107 0.07814805 -0.0949302 0.15962467 0.0072258697
-0.09496069 -0.035017427 -0.09723231 0.18168591 0.03387586 0.04258683 -0.17361516 0.11980782
0.23294444 -0.09743687 -0.06661253 0.010517496 0.071268894 0.11661742 0.055912007 0.14221723
-0.16221404 0.09488242 0.04900917 0.004775107 -0.00703883 -0.11747822 0.012484469 0.015569719
-0.022274675 0.11314439 -0.08673605 -0.046523992 -0.00633347 0.057498135 0.038210254 -0.043637153
0.0055141067 -0.37175915 -0.13308257 -0.0007379999 0.12957303 0.105378844 -0.018656123 0.058339544
-0.009262422 0.06985178 0.036546264 -0.013942519 0.019293064 0.0077314232 -0.033741724 -0.0703342
-0.13307886 -0.0049995724 0.17949831 -0.16082938 -0.029863572 0.101628184 -0.0927683 -0.111049265
-0.13644092 -0.02739439 -0.043494355 -0.057183255 0.031145709 -0.059690982 0.0056784977 -0.10752632
-0.037613463 -0.30789578 0.08069313 0.051722724 0.19296318 -0.010801205 0.02784011 -0.0513397
-0.053341717 0.07267319 -0.07985852 0.121025845 0.05381949 -0.120222665 -0.02677958 -0.039680015
-0.11609792 0.1865003 0.18410747 -0.07994531 -0.1129508 -0.018941915 -0.008306415 0.016895138
-0.11560232 0.004044732 0.01017128 -0.030556697 -0.021806188 -0.06196149 0.01489398 -0.10748106

model4/cnn_model/conv2d_2/Conv2D f4 [32, 3, 3, 16]
00000000: 4d2c 853e 14d6 f33c d458 34bd dac2 c33d
00000010: c3c3 ca3d 8cce f03e 8e64 883e 8b25 f73c
00000020: b31b ccbd 5b63 f9bc 7deb a0bd 6da5 1b3e
00000030: 4620 84bd 542e cebb 2057 0fbe e9c1 543c
00000040: cfa6 eb3d 4e42 0d3e 6cec 11be 2637 b13b
00000050: b623 85bd a2a9 9e3e 44a7 213e 2bf6 f33d
00000060: 530f 803d 74e3 203c 4603 a4b8 87b8 ccbd
00000070: 20c0 0bbe 0669 b0bc 9dc8 4cbe 2244 b9bd
00000080: c09d 753e bccc 13bd 1a7a b6bd c98b 873d
00000090: fd92 833d 6f5e 68bc 6426 b33d 383f 9d3d
000000a0: 43f7 103d 2d7a 2d3d af40 a73d 2c9d d2bd
000000b0: ed73 30be cb85 503e 4db4 47be 3e4a 25be
000000c0: 768c d63d 6022 cebd 6d88 4fbc 271d e2bc
000000d0: ac87 28bd 62f8 9c3e b41c 413e f0a5 973d
000000e0: da6c 153c af18 4d3e 65da 483d 9059 26bc
000000f0: 351e 933d a9c5 febc 949b 85bd 2c14 373d
00000100: 7e10 b33d c61a 983d 1011 47bd 6fa7 613d
00000110: ad13 fabd a20e 223e 1e5d e73d 4dbc b23d
00000120: da00 443d a4ac d1bc 3971 6e3d 1892 68bd
00000130: a59d 043e dd4a 1b3e 0c70 4fbd e157 cabd
00000140: 3782 783e 8ea4 7ebd 56f7 c13d 424b ce3c
00000150: 11bd 9bbd 30be 5abe 28b0 71bd b0c4 f1bd
00000160: 2822 c0bd 9c2b 4b3b 811d 013e f18c 9ebd
00000170: ef8c 0cbe 6867 3a3e f311 25bd 9739 a9bd
00000180: 76b5 ab3d 044e c4bc 80c3 93bc aa6b bcbd
00000190: 12ee 10be 142b 0a3e 0a72 2f3e 8485 4cbd
000001a0: edaa 75bd 80cc 873d 59ef d33d c7f7 74bd
000001b0: ba19 6cbd 0b0e dbbd 4d0b 99bd 6d88 aa3d
000001c0: a983 0a3d c416 c1bd 172b debd e096 693d
000001d0: e4d8 aabd 8a1c 453e 8e5c adbb e81c a03d
000001e0: 6731 a3bd 84cc c5bd 6b51 cb3d c210 29be
000001f0: 7e67 933d fa42 bb3d ae6d c23c 26d9 323a
00000200: 29c1 1d3e 103e 00be ab26 583d cd69 e4bd
00000210: 2bb7 d43c 561a 4abe 787c 893c 8561 d3bb
00000220: 1abd 923c b13f 1bbe 93a1 a93d 381b eebd
00000230: 0e4a 7b3c 50e2 9e3d 1c59 bdbd a55f b8bd
00000240: f448 853d 0139 173e eaf0 163d 9889 57bd
00000250: aee5 50bd f0b7 7dbd caa6 b73d 6413 e0bd
00000260: 7d86 3dbd a8cd 15be 56a4 0f3e 1310 0ebe
00000270: 8d87 c8bd 542c a23d 35ab ad3d ea68 41bd
00000280: 8692 343e 0607 363e a3cd 79bd 913a 193e
00000290: 66b2 6ebd 5df1 b83d bef8 e5bd a289 a33d
000002a0: 4712 b4bc aa89 823e 05e1 75be 018d 35bd
000002b0: 5ca7 ebbd 2b75 2d3d e6b1 113e bca5 7f3d
000002c0: 8dfc 2c3e da0a 263c 8479 38bd 01dc 9d3d
000002d0: 760c 1ebe c3f8 ac3d 2572 b6bd b650 da3d
000002e0: 01ec 083d 22e3 773e 5c67 4fbe a05c 073e
000002f0: 0fa9 8ebd ba95 5ebe dec6 8b3e 7592 2c3e
00000300: 8e76 e6bd 0cf0 47bd 48ed ea3d 7a4b 97bd
00000310: a78a a03d 65e9 3dbe b98f 14bd 70e1 34bd
00000320: 9f33 febc 0ced 64be 3be3 4c3e c083 2fbe
00000330: aa7c 5dbd cc8f 523d c764 c4bd f7b0 ef3b
00000340: 0916 e43d c13f 1ebd 251c 2fbd 01ab 19bd
00000350: 913a f4bc 7dc7 0abe ab07 14be e093 a43d
00000360: 8664 e8bd db91 cebc 19de 073c 5bab 3a3d
00000370: b1f7 7a3d 9734 843c 391a 34bd 45aa 98bc
00000380: ddf1 fd3c adbb 4bbd 3e1e cebd b5da 85bc
00000390: 87f8 07be 2f07 d03d 431d d0bd 887f ca3c
000003a0: 2d5a 80bd 3013 2c3e d6b1 09bd 1599 d53d
000003b0: 2922 c83d da7f 45bd 49ab 0d3e 1a90 9e3d
000003c0: 65bb c3bc 1f1f 84bd 3fb3 2d3d a382 cbbb
000003d0: 0686 5abc 7fe3 963c de66 05bc 1481 60bd
000003e0: 5897 08bd bd81 86be 0afc aa3e b7b7 c7bd
000003f0: 418d c03c 4df8 243d 8faa 83be 18c5 4bbe
0.2601036 0.029765166 -0.044030026 0.09558649 0.0990062 0.47032583 0.26639217 0.03016927
-0.09966221 -0.030442884 -0.07857416 0.15199824 -0.06451468 -0.006292144 -0.1399808 0.012985685
0.115064256 0.13794824 -0.14250344 0.0054081855 -0.06500952 0.30988795 0.15786463 0.11912187
0.06252923 0.009819854 -7.820739e-05 -0.09996133 -0.13647509 -0.021534454 -0.19998403 -0.090461984
0.23985958 -0.03608392 -0.08910008 0.06618459 0.0642452 -0.014182671 0.08747557 0.07678074
0.035392057 0.042352844 0.08166634 -0.102838844 -0.17231722 0.20363538 -0.19502373 -0.16141602
0.104760095 -0.1006515 -0.012666804 -0.027601792 -0.04114501 0.3065825 0.18858606 0.07404697
0.0091201905 0.20028947 0.049036402 -0.010153189 0.07183496 -0.031100111 -0.06523815 0.04469697
0.0874338 0.07426982 -0.048600256 0.055091318 -0.12210784 0.15825894 0.112970576 0.08727322
0.047852375 -0.025595017 0.058213446 -0.05677995 0.12950762 0.15165277 -0.050643966 -0.09880043
0.24268423 -0.06216865 0.09471004 0.02518237 -0.07604421 -0.21361613 -0.059005886 -0.11805093
-0.09381515 0.0031001335 0.12608911 -0.07741726 -0.13725637 0.18203509 -0.04030032 -0.082629375
0.0838422 -0.023962982 -0.018037558 -0.09200223 -0.14153317 0.13492996 0.17133346 -0.049932018
-0.05997746 0.06630802 0.10348386 -0.05980661 -0.057641722 -0.10696038 -0.074728586 0.083268024
0.033816967 -0.0942817 -0.108480625 0.05702865 -0.0834215 0.19249168 -0.0052905744 0.078180134
-0.07968407 -0.09658149 0.099276386 -0.16510299 0.07197474 0.09143634 0.02373394 0.0006822519
0.15405716 -0.12523675 0.05277125 -0.111529924 0.025966248 -0.19736609 0.016782984 -0.006450834
0.017912436 -0.15161015 0.08282771 -0.11626285 0.01533748 0.077580094 -0.09245512 -0.09002618
0.06508055 0.14767839 0.036850847 -0.052621454 -0.05100029 -0.061942995 0.08967359 -0.109411985
-0.046270836 -0.14629233 0.14027533 -0.1387332 -0.09791479 0.07918611 0.08479921 -0.047219194
0.1763402 0.17776117 -0.060987126 0.14963748 -0.058275603 0.090304114 -0.112290844 0.07985236
-0.021981372 0.25495654 -0.2401162 -0.044323925 -0.11506531 0.04234807 0.14228019 0.062413916
0.16893215 0.010134423 -0.04503776 0.07707978 -0.15434441 0.08445885 -0.0890849 0.10659926
0.033428196 0.24207738 -0.20254272 0.13218927 -0.06965839 -0.21736804 0.2730016 0.16852744
-0.11253081 -0.04881291 0.11471039 -0.07387443 0.07838946 -0.18546064 -0.036269877 -0.044160306
-0.031030474 -0.22356051 0.20008557 -0.17140102 -0.054073967 0.051406667 -0.09589534 0.007314797
0.11137015 -0.03863502 -0.04275145 -0.037516598 -0.029813083 -0.13552661 -0.1445605 0.080360174
-0.11347298 -0.025216034 0.008292698 0.045573574 0.061271373 0.016138358 -0.04397032 -0.018635878
0.030999118 -0.04973953 -0.10064362 -0.01633964 -0.132784 0.1015762 -0.10161831 0.024719015
-0.062672 0.16804194 -0.033616863 0.10429589 0.097721405 -0.048217632 0.13834871 0.07742329
-0.023893068 -0.064512484 0.04240727 -0.0062106415 -0.013337618 0.018419025 -0.008142201 -0.0548106
-0.033347458 -0.26270857 0.33395416 -0.09751838 0.023504855 0.04027586 -0.25716063 -0.19899404

model4/cnn_model/conv2d_3/Conv2D f4 [64, 3, 3, 32]
00000000: dc18 073d c545 003d 17de edbd c6c0 b33c
00000010: 9ae3 373c 6647 b2bc 7946 e5bc 20ba ccbd
00000020: f7ce dcbc c6cf 493c 0792 493d 7514 5c3d
00000030: a922 15bd 3926 a3bd 3ae6 35bd b4e9 30bd
00000040: f896 88bd 6958 c9bc 000c cabd d939 dcbd
00000050: b139 d5bd 9aea 333b 237b 46bd 1828 18bd
00000060: 217a 853d 0be3 563d df39 883c ea29 df3c
00000070: c81c ecbd 4632 0e3d 1939 d4bd bb35 5f3c
00000080: 00da 29bd d54b 32bd d0e5 9dbd ac38 21bd
00000090: e3a1 6ebd c74d ebbd f000 c6bd ccc2 c3bd
000000a0: 7611 18bd 4635 0bbd eaeb 4fbc 027d 9d3c
000000b0: 5955 c3bd fff7 8dbc 4aef 033d 61a3 aabd
000000c0: 4df5 8cbd 4811 a6bd 54c9 09bd f740 e6bc
000000d0: e7b1 b7bd 81a8 82bc 0465 b1bc 57be c5bd
000000e0: dfb7 43bd e721 963d 4a58 dbbd 6b3f 633d
000000f0: 551f 08bd 4677 c2bc 8ebe a0bd 0a01 3ebd
00000100: 47d7 673d 5dd3 babc 605c 5bbd 124b edbd
00000110: 20b8 213d 421c 83bd 27b9 d6bd ab98 12be
00000120: 5b54 78bd f97c d6ba 13e5 95bd d07e cdbd
00000130: 09a8 78bd 9016 cc3c 5081 5cbd d4bd 74bb
00000140: 19fc 213d f682 c8bc fd69 cebd b746 0abd
00000150: 9c40 bb3b 558a 11ba df63 94bd 7ab8 9abd
00000160: 2172 853d fb42 8f3d 6bf3 8bbd d4f6 8dbd
00000170: 2ba0 ffbd 2ea0 a5bd c0cf 10bd fe43 4a3d
00000180: acc1 92bd addc 9b3c dae6 8bbd 31bf b7bd
00000190: 108d 3abd 41bf 163d 6584 3d3b fb46 03be
000001a0: c50f bb3b f80d 68ba 7121 42bd faf1 aabd
000001b0: 6920 afbd 36df 2bbc c1ef 1b3d 0372 0eba
000001c0: 38cb d93c 12f6 42bd 8a89 c23c dee7 15bd
000001d0: d6e9 1d3d 1b9f 9cbc 68ba 5dbd 5e3c 1c3c
000001e0: 9454 c0bd 18cd c6bc 8a63 4a3d 2562 6a3b
000001f0: e9df 3f3c 5fdc 11bc 8d08 d3bc 7451 6ebd
00000200: 51b5 0d3d 7060 023d bbf6 1f3b ce2a c0bd
00000210: 8a84 04bb 78fe 5a3c e28a a33c e7ee 8ebc
00000220: 61d5 21bd 619f ef3c dd30 6a3d fb9b 43ba
00000230: b24c 0f3c 06ec f8bd b7f6 f7bc f561 c8bc
00000240: 131a 353d 7bc2 6ebd 71a3 9abd 1e3f afbd
00000250: 1c6e eebd 2f51 98bd 29b0 7ebd f45e 72bd
00000260: 56fc afbc 33a8 46bd fa56 88bc 055f 07bd
00000270: 588f 613d 4071 0abb 8d34 d1bc 812f a0bd
00000280: 1640 67bd 2d2f 83bd 1aae 7bbd 7645 d4bb
00000290: a1d1 8fbd 17b4 91bd 4bcb c43c ecbe 993b
000002a0: c08e 8bbd 4030 9dbd a4d3 af3c 639e b7bd
000002b0: 277b 08bc 271f 9dbd 01c7 8dbd 18cf 47bd
000002c0: 4d5a b0bd 40bb 703d 4bb3 4e3c 3ada 48bd
000002d0: 50ef acbd b374 593c 11d0 17bd 619c d3bd
000002e0: ad5d c3bd cb9d ba3c 6c2c b2bd f135 2dbd
000002f0: e290 58bd 7bf1 db3c 1f55 02be 7807 86bd
00000300: bcf7 2dbc 7b4f e9bd b298 26bd 3f8a aabd
00000310: f099 d73c 7a6d 98bd b2e0 73bc 48ec 54bd
00000320: fe4d 43bd cee5 5dbd f125 34bd 3929 10bd
00000330: e345 f3bd af60 513b 41e1 96bd 4853 d03c
00000340: 20ab 4ebd 71a0 4cbd 0108 b9bd 1344 e2bd
00000350: 2d70 7c3b 11f0 853c 2095 89bd 453f 83bd
00000360: ecd0 343c b9ce 9b3d c77a d9bd 8651 babd
00000370: 8209 b9bb fc51 cebb 5ef7 03be 4d16 8dbd
00000380: 8609 973d e84c efbc 4a1d 56bd fad2 55bd
00000390: c457 9c3c 51eb 94bd 15a4 bfbc 11fb 983c
000003a0: a3d7 c0bd ed5b 453d bfbc 78bd cae1 f8bc
000003b0: 7360 983b d087 dabd eec4 6e3b feff b8bc
000003c0: aee1 973d 81f8 9bbd 673c 493c 4d7f 323d
000003d0: 4ec8 2e3d 3a19 923d 955c afbd 7d6f dbbd
000003e0: 0839 cebd aff7 6a3d d998 9cbd 27f9 0dbd
000003f0: 328c 24bd ffed 83bd 0d3f b5bd cd6b aebc
0.032982692 0.031316537 -0.11614626 0.021942507 0.011223698 -0.021762561 -0.027987706 -0.09996438
-0.026954157 0.012317603 0.04921153 0.053730447 -0.036410008 -0.07966275 -0.044409014 -0.043191627
-0.0666942 -0.02457829 -0.0986557 -0.10753221 -0.104113944 0.0027453066 -0.048457276 -0.03714761
0.06517435 0.05246262 0.016629158 0.027241666 -0.11528927 0.034715913 -0.10362453 0.01362365
-0.041467667 -0.04352935 -0.07709849 -0.039360687 -0.058259856 -0.11489444 -0.096681476 -0.09558639
-0.037126027 -0.033986352 -0.012690524 0.019224647 -0.09537763 -0.017330168 0.032210626 -0.08331943
-0.06882725 -0.08108765 -0.033639267 -0.02810715 -0.08969479 -0.01594949 -0.021654613 -0.09655445
-0.047782775 0.07330685 -0.10710199 0.055480402 -0.033233006 -0.023738515 -0.078488454 -0.04638771
0.05660179 -0.022805864 -0.053554893 -0.11586584 0.039482236 -0.06401874 -0.10484534 -0.1431605
-0.060627323 -0.0016364149 -0.07319083 -0.10033953 -0.060707126 0.024913102 -0.05383426 -0.0037344592
0.03954706 -0.02447651 -0.100788094 -0.033758845 0.005714489 -0.0005551924 -0.072456114 -0.07554717
0.06515909 0.069951974 -0.06833538 -0.06931844 -0.124817215 -0.080871925 -0.035354376 0.04938125
-0.07165846 0.019026125 -0.06831141 -0.08972014 -0.045544684 0.036803488 0.0028918025 -0.12820046
0.005708667 -0.0008852179 -0.047395173 -0.083469346 -0.085511036 -0.010490229 0.038070444 -0.0005433859
0.02658616 -0.047597952 0.023747224 -0.03659808 0.03855308 -0.019118836 -0.05413285 0.009535877
-0.09391132 -0.024267718 0.049411334 0.0035764065 0.011711099 -0.008902638 -0.025760913 -0.05818315
0.034596745 0.03183025 0.0024408537 -0.09383164 -0.00202206 0.013366334 0.019963685 -0.017447902
-0.039510135 0.029250802 0.057175506 -0.00074619026 0.008746313 -0.12154393 -0.03026901 -0.024460772
0.04421432 -0.05829094 -0.07550705 -0.085569605 -0.116420954 -0.074373595 -0.06217972 -0.059172586
-0.021482628 -0.04850025 -0.016643036 -0.033049602 0.055068344 -0.0021124631 -0.025537753 -0.07821561
-0.0564576 -0.064054824 -0.061445333 -0.006478007 -0.070224054 -0.071144275 0.024022719 0.004691949
-0.06814337 -0.076752186 0.021463223 -0.08965757 -0.008330143 -0.076719575 -0.069227226 -0.048781484
-0.086109735 0.058772326 0.012615989 -0.049036242 -0.08444083 0.013272452 -0.037063662 -0.10332561
-0.095393516 0.02278032 -0.08699879 -0.04228777 -0.052872546 0.026848545 -0.12727784 -0.06544393
-0.0106181465 -0.11392113 -0.040672965 -0.083271496 0.02631852 -0.07442756 -0.0148851145 -0.051983148
-0.0476818 -0.054174237 -0.043981496 -0.035195563 -0.11878564 0.0031948497 -0.073671825 0.025430337
-0.050456166 -0.049957696 -0.0903473 -0.110481404 0.003851901 0.016349824 -0.067178965 -0.06408552
0.011036139 0.076077886 -0.10619121 -0.090975806 -0.0056468854 -0.0062963944 -0.12887332 -0.06889019
0.07374863 -0.029211476 -0.052274026 -0.052203156 0.019084819 -0.072714455 -0.02339367 0.018674405
-0.094161294 0.04818337 -0.060726877 -0.030381102 0.0046501695 -0.106704354 0.0036433297 -0.022583004
0.07416092 -0.07615758 0.012282467 0.043578435 0.042671494 0.07133718 -0.085625805 -0.10714624
-0.100694716 0.057365116 -0.07646341 -0.03466144 -0.040172763 -0.064418785 -0.088499166 -0.021291638

model4/cnn_model/conv2d_4/Conv2D f4 [128, 3, 3, 64]
00000000: 6616 c83c 9239 143a c231 253e bc2b 373c
00000010: 7166 1abe b303 cebc 6896 0d3c f04a 313c
00000020: 7e74 c4bc 7983 4c3d a79c 34be 7f13 193d
00000030: 8aca c139 ab8b 19be 4533 003e 0755 c0bd
00000040: bd61 9bbc 022f 32bd d1bc 7ebc 0d85 f5bc
00000050: 6a10 fc3d aa85 b9bc aef1 5d3d ea77 dabc
00000060: e470 6fbe 5153 cb3a 3963 b9bc 10df 7bbe
00000070: 1ae2 a4bc 146e 813d bac3 da3b 4c72 9bbc
00000080: 5a53 06be 0097 f1bd 3289 88bd 5a16 9f3b
00000090: dfe8 f1bd 84e3 603b 33db 23be 8bbf 5b3d
000000a0: fefa 2aba ccd6 f73b ceb6 8abc a92e 3b3c
000000b0: c08d 3c3b 42f7 c13d 47ca 2cbd 920e 10be
000000c0: f1c7 23be 8cab 103d 6b47 283d 350a 26be
000000d0: 6d5b d7bc 01ac c1bd f4bc 203d 5dfa 2dbe
000000e0: f12d 29be 05d4 963d 62eb 83bc 65f4 893c
000000f0: a9da 2bbe f8ad d1bc 7352 413d 8270 30bc
00000100: 6d8b 0bbd d9d9 a93d f986 b13e d9fa 1a3d
00000110: d7df 98bd 7c54 e53d b636 5dbc 833e 6cbd
00000120: e8b8 633d 58eb 783d 38d4 9fbd 47e9 10bd
00000130: 324a 983d 781a 12bd c6ac eb3d f5f5 f9bc
00000140: f10e 5a3d 692b 3b3c ab65 303c 1fc2 d7bb
00000150: a785 193e b456 a2bd c2ef 373c 701a 45bc
00000160: 0a0e e53c be07 08bd 4362 b83d 05e1 0bbe
00000170: 504a b8bd ce70 923c cf7a deba 49fa aa3c
00000180: 2dfe 23be 4308 bebd 5a1e 013d 15cb 1f3d
00000190: 2716 bbbd 6de6 3d3d 3db7 9ebd 6666 9a3d
000001a0: 7995 19bc 93d1 893d d4b1 593d 84e3 a43c
000001b0: 5707 7b3b 66f1 993e ec0b 2f3d f4b3 01bd
000001c0: 9d6f 06be c22d 673d 0b39 b23d 8762 b2be
000001d0: db72 69bc 2638 f4bd 8fab 333d aba8 cabd
000001e0: 6b85 1dbe d903 163d 043a 633c 4d6b fbbb
000001f0: 54f9 b0bd 0c47 efbc e802 f33c fb28 883d
00000200: e67e a5bd 348e 9bbe f18b 563e f4f8 743d
00000210: c7d2 2fbe b47e 033e 4d9a 0fbd 3277 ffbb
00000220: e973 593d 59f2 69bb 0323 69be d27d 7bbd
00000230: 6aea 8d3d a92c babb 9f25 f53d 304d d13c
00000240: 95cd 2b3d d413 edbb f762 093c e510 443d
00000250: 4bf4 473e eff3 01be 2ee5 0a3d f8a0 113e
00000260: aef2 6abe 6b5a f63d d040 113c 92a4 58be
00000270: 2f72 2fbe 31c9 ec3d 18a1 53bc 808d 81bd
00000280: d84f 10be b5fa 85bd 0060 c0bc bc19 d8bc
00000290: ee8d ccbd cadd 493d fe1f b3bd 60af ae3d
000002a0: 233c 873d 97d7 33bd 0bd3 213d 6278 df3d
000002b0: 358f fe3c 7f30 c83e 700c d6bc 417d 87bd
000002c0: 24e9 49bd a931 013e 809f 103e 50cf d6be
000002d0: 035d 61bd 0423 27be aafa 99bd 391e 27be
000002e0: 5745 16be ef95 68bd 2612 063d 9bdd 0fbd
000002f0: e624 e3bd 8550 f7bb 111f 4e3d de2e 103e
00000300: ff5b 97bd 0ee6 75bc 364d af3e bbfd a3bd
00000310: d04f 7abd 9287 52bc 168c 2ebd c3b0 293d
00000320: 2867 1b3b 9b26 3cbd bb10 38be 452e 3b3c
00000330: 6834 853d dac7 19be cfdf e23d f85c 193c
00000340: 9cbb 80bd 07d4 893b a3fa a03d 3476 8e3d
00000350: ba29 f939 ab61 893d c966 0dbd ab58 7e3d
00000360: 9e01 61be 1364 e63c faec e03d 7d70 13be
00000370: 33ef eabd 5e12 9f3d 608f 063d d820 083d
00000380: 8f47 1abe b880 2fbe f699 06bd 8a0b af3b
00000390: 3383 6f3d 72af a6bc 5c79 26be a8e4 313d
000003a0: 9040 31bd c492 ff3c 5e0f d23d bed7 2e3e
000003b0: 5de6 893d 338d b23e 1365 2a3d 6f65 7ebc
000003c0: d0fe 7bbd 56a8 bf3c e22a 943d fdb1 4cbe
000003d0: 1535 e13c 36ac 3abe 1d71 253d f752 b8bd
000003e0: c16c 1cbe 2275 6fbc 2cba 883d a3dd 513c
000003f0: 4aa2 d5bd 715f 0d3d 7404 333c daaf c23b
0.024424743 0.00056543306 0.16132262 0.011179861 -0.15078141 -0.025148248 0.008641817 0.010821089
-0.023981329 0.04993007 -0.17637883 0.03737211 0.00036962732 -0.14994685 0.12519558 -0.09391218
-0.018967504 -0.04350186 -0.015547947 -0.02997067 0.12307818 -0.022646744 0.05418556 -0.026668508
-0.23382908 0.0015512501 -0.02263032 -0.2459681 -0.020127345 0.06319824 0.0066761645 -0.0189754
-0.13117734 -0.11796379 -0.06666793 0.0048549594 -0.11811995 0.0034315297 -0.16001587 0.053649466
-0.0006522386 0.0075634476 -0.016932871 0.011424699 0.0028771013 0.09470989 -0.042185094 -0.14068058
-0.1599424 0.03531985 0.041083734 -0.16214831 -0.026288712 -0.09456635 0.0392427 -0.16990037
-0.16521432 0.07364658 -0.01610345 0.01684017 -0.16782631 -0.02559565 0.04719777 -0.010769011
-0.034068514 0.08293504 0.34673288 0.037836883 -0.07464569 0.11197755 -0.013501814 -0.057676803
0.055596262 0.060771316 -0.078041494 -0.03537872 0.07436027 -0.035669774 0.11507563 -0.03051279
0.053236905 0.011423924 0.010766427 -0.0065844203 0.1499239 -0.079266936 0.011226596 -0.012030229
0.027960796 -0.03321051 0.09003117 -0.13660057 -0.08998549 0.017876055 -0.0016973856 0.020871298
-0.16014929 -0.092789195 0.031523086 0.039012033 -0.091350846 0.04636233 -0.07749794 0.07539062
-0.009374016 0.06729426 0.053148106 0.02012802 0.0038303935 0.30066985 0.04273598 -0.031665757
-0.13128515 0.056440122 0.08702286 -0.34840795 -0.014248575 -0.11924772 0.043864783 -0.09895452
-0.15382926 0.036624763 0.0138688125 -0.0076727034 -0.086413056 -0.029208682 0.029664472 0.066484414
-0.080808446 -0.3038193 0.20951821 0.059807733 -0.17170249 0.12841302 -0.035059262 -0.0077961916
0.053089056 -0.003569743 -0.22767262 -0.06139929 0.069294766 -0.0056815934 0.11970066 0.025549501
0.041944105 -0.0072350297 0.008385411 0.047867674 0.19526784 -0.1269071 0.03390997 0.14221561
-0.22944137 0.120289646 0.00886555 -0.21156529 -0.17133401 0.11561812 -0.012916826 -0.06325817
-0.14092958 -0.06541959 -0.023483276 -0.026379459 -0.099880084 0.04928378 -0.087463364 0.08529544
0.06603267 -0.043906774 0.039507907 0.10911633 0.031074146 0.390995 -0.026128978 -0.06615687
-0.049294606 0.126166 0.14123344 -0.41955042 -0.055020344 -0.16321951 -0.075185135 -0.16320123
-0.14674889 -0.056783613 0.03273215 -0.03512345 -0.11091022 -0.0075474405 0.050322596 0.14080378
-0.07390594 -0.015008463 0.34238595 -0.080073796 -0.06111127 -0.012849705 -0.042614065 0.04142834
0.002371261 -0.045935255 -0.17975132 0.011424606 0.06504136 -0.15017644 0.11077844 0.009360544
-0.06285784 0.004206184 0.07860305 0.06956139 0.0004752407 0.06708082 -0.03452185 0.06209628
-0.21973273 0.028123891 0.109827 -0.1439838 -0.11471405 0.07767175 0.032851577 0.033234447
-0.1506636 -0.17138946 -0.032861672 0.0053419517 0.05847473 -0.02034733 -0.16257232 0.043430954
-0.043274462 0.031197913 0.10256837 0.17074487 0.067333914 0.3487335 0.041600298 -0.015527113
-0.061522305 0.023395699 0.07234742 -0.19989772 0.027491132 -0.18229756 0.040391076 -0.09000199
-0.15275861 -0.014615329 0.066761345 0.01280919 -0.10431345 0.03451485 0.010926355 0.0059413733

model4/output_layer/BiasAdd/ReadVariableOp f4 [3]
00000000: c8a8 78bd 6235 92bb 25d5 c43d
-0.060707837 -0.00446193 0.096109666

model4/output_layer/MatMul f4 [3, 128]
00000000: 2853 8b3e 370e 75be 9249 c0be f516 bc3d
00000010: aa0d e2be 821b 50be e18b 203e b586 c13d
00000020: 03c5 2f3e cdd5 0f3e 758b 8a3d 8286 fe3d
00000030: 5af0 793e 16f5 623e 1a19 43be a3a4 893d
00000040: 0a30 7d3d 71a1 55be bc79 223d 63af ca3d
00000050: aa92 5a3e ec60 8fbd 09df 623d 969b f4bd
00000060: 8833 933e 42c0 2dbe bab1 623b 99a5 3fbe
00000070: 1672 1bbe d3b8 08bd 57f1 7f3e 46d8 65be
00000080: 2745 e4be bfe4 52be 2110 62be 005f 19bc
00000090: 911d df3d bb20 3bbd 883e 94bd be09 26be
000000a0: 1992 083e 2bbd 533e 49cc 04bd 1c8f 46be
000000b0: 5d52 08be 0192 0c3e c241 c3bc 2491 7fbe
000000c0: 2df5 9abb 2f47 0abe 7d82 86be 3780 b73c
000000d0: 1620 6abd cc81 74be 8184 cb3d 1437 ff3c
000000e0: 640b 33be a55d 143e 6765 7a3e 9712 bcbd
000000f0: 28fa 413e 8816 5bbe 58f0 98be 4f5f 8dbe
00000100: c2d0 bbbe d6a8 d23d c12c 76bc cc3b 17bd
00000110: fe3b 1e3e 7b69 f7bd c883 da3b 41d5 2bbd
00000120: 3374 313e 2218 97be ca96 863a a895 09be
00000130: 5289 503d 6697 773d 3b6a 5c3e 2085 0abe
00000140: e416 b43c c2a5 f13c 8bb7 133e f822 bc3d
00000150: d3ab d8be 0503 273e 798b 4cbe 448d 7fbe
00000160: eb0b fb3d 399a 35be c943 2cbe 5d74 46be
00000170: 8f09 883e 9c5a 3abe b306 543e dc03 45bc
00000180: 9901 7cbe 1a84 153d 9c6f 30be 50ba e13d
00000190: 5605 5fbe ea9b 7f3e 817b 88be db1d ef3d
000001a0: 1a46 cdbe e299 82bd eb54 413e 2ade 25be
000001b0: fa81 193e 761b 483e 369f 90be 78ec f7bd
000001c0: 6ed4 ed3d 34c1 81bc e606 60be 3f65 85be
000001d0: 4b09 ba3d 21f0 803e 3a4a 42be 7fba 39bd
000001e0: d955 84bd 6df7 4bbe 9334 a0bd e3df a1bd
000001f0: 2fd6 1a3e 90d3 673d b283 c33d b205 66be
00000200: 44ff 84be cbc5 d53d 4358 413c cbf5 5e3e
00000210: f2b9 063f e551 d03d 62e9 073c 7362 5a3d
00000220: a363 e4bb f10c f53d daa1 8cbd 4448 f53d
00000230: c4ca febd 5b9d 76be 41c3 46bd 96bb d2bc
00000240: 3682 02be 1ce1 86bb 4aec 033d 3d7d 6bbe
00000250: 81d3 413e c25f d83c 2ae7 bb3b a322 45be
00000260: c32c 99be b4de ebbd 648d 0b3d edee 43be
00000270: e492 d33d 60dc 383c b5b3 bcbe 3745 ffbd
00000280: dbf7 a83e f3fa 213d 3702 c03c cc2f 903c
00000290: e598 ddbd 1f0a d9bc 46dc 20be b8a5 403d
000002a0: 2d98 a9be 6abe bcbd 5fb7 51be 0bad 6d3d
000002b0: c0a9 92be bb07 fa3c 8ea0 5dbd a402 27be
000002c0: 32d1 be3d a2cc 093e 2025 283e 0955 9c3d
000002d0: 5eb4 ba3d 293b a83d 38d1 5bbe 480f a7bc
000002e0: fa48 21be d7b9 4dbe 77cc 97bd bdd9 7fbc
000002f0: 5928 a4bc 2449 333e db23 e0bd 63bd c7bd
00000300: 50fe 9c3e 7a15 56be 7f04 1cbe 781f 523d
00000310: 40d8 933d 4e52 e8bd 71b6 66bd 3c90 323e
00000320: 96d3 333e 3e7f 973e 583f b0bd 1530 8c3e
00000330: be2e 9dbc 47e9 b83d 19ce 353e fa91 d33c
00000340: 2cbd c53d fe45 47bc 4075 3f3e c581 f03d
00000350: a372 a53d 4e2c ff3d e3b3 c63d ef1e 393e
00000360: 2be1 473e 43d3 1abc 8a8f e4bd 16a5 993d
00000370: 769c 87be 38f4 10be 3e75 0c3e 0cd3 b4bd
00000380: 029d 153e ed40 873b 4dfb 20be 7d28 103e
00000390: 598d 9abe 6405 afbe f092 403d 6d2e 23be
000003a0: e1ab a93e 70b1 593e c429 173e b869 d4bc
000003b0: 9b42 3a3e b885 cb3d 486c c53c 1770 7ebd
000003c0: 3dae b6bd d9e4 123b 90ea b23d 6cda 2b3e
000003d0: e84c adbd 5e70 dc3b 4ed9 99be e15d 353d
000003e0: bc95 baba b16a 00be e335 663e a6d2 abbd
000003f0: 4bde 5b3e fc3d 97bd 06a5 81be 6398 f93c
0.2721188 -0.23931204 -0.3755613 0.09184066 -0.4415105 -0.20322993 0.1567836 0.094495215
0.17164998 0.14046402 0.067648806 0.12427999 0.24408093 0.22163805 -0.19052544 0.06720855
0.06181339 -0.20862366 0.039666876 0.098967336 0.2134501 -0.07000908 0.055388484 -0.11943738
0.28750253 -0.16967872 0.0034590797 -0.18715514 -0.15180239 -0.033379387 0.24994408 -0.22445783
-0.4458401 -0.20595072 -0.22076465 -0.009361029 0.10894311 -0.04568551 -0.072384894 -0.16214654
0.13336982 0.2067763 -0.032421384 -0.1939053 -0.13312669 0.13727571 -0.023835067 -0.2495771
-0.0047289343 -0.13503717 -0.2627143 0.022400005 -0.057159506 -0.23877639 0.099373825 0.031154193
-0.17484814 0.14488848 0.24452744 -0.09183233 0.18943083 -0.21395314 -0.29870868 -0.27611777
-0.36682707 0.10286109 -0.015025319 -0.03692226 0.15452573 -0.12080666 0.0066685416 -0.04195142
0.17329483 -0.295106 0.0010268327 -0.13435996 0.05091221 0.06044712 0.21524899 -0.13527346
0.021983571 0.029497985 0.14425485 0.09186357 -0.4231859 0.16309746 -0.1997508 -0.24956232
0.122581325 -0.17734613 -0.16822733 -0.19380327 0.26569793 -0.18198627 0.2070568 -0.012024846
-0.24609984 0.036502935 -0.17230076 0.110218644 -0.21779379 0.2496182 -0.26656726 0.11675616
-0.40092546 -0.06377007 0.1888005 -0.1619803 0.14990988 0.19541726 -0.28246468 -0.1210565
0.11612783 -0.015839197 -0.21877632 -0.26053807 0.09083804 0.25183204 -0.18973628 -0.045343872
-0.06461687 -0.19918604 -0.07822528 -0.07904031 0.15120767 0.056598246 0.09546603 -0.2246311
-0.25976002 0.10438117 0.011800828 0.2177345 0.5262748 0.1017187 0.008295389 0.053316545
-0.0069698854 0.11965359 -0.06866808 0.11976674 -0.12441018 -0.24083464 -0.048526052 -0.025724214
-0.12744984 -0.0041161906 0.032207765 -0.22996993 0.18928339 0.026412848 0.005734344 -0.19251494
-0.29916963 -0.115170866 0.034070387 -0.19134112 0.103307515 0.01128301 -0.36855856 -0.124643736
0.330016 0.039545964 0.023438556 0.017600916 -0.10820178 -0.026494084 -0.15709028 0.04703304
-0.33123913 -0.09216006 -0.20480107 0.058026355 -0.28645134 0.030521264 -0.054108195 -0.16309601
0.093172446 0.13456967 0.16420412 0.07633407 0.091164336 0.08214409 -0.2146653 -0.020393029
-0.15750495 -0.20090424 -0.074120454 -0.015615878 -0.02003877 0.1750837 -0.10944339 -0.097529195
0.30662775 -0.2090663 -0.1523609 0.051299542 0.07218981 -0.113438234 -0.056326333 0.17437834
0.17561182 0.29589266 -0.08605832 0.27380434 -0.019187327 0.09028869 0.17754401 0.025826443
0.09655222 -0.0121626835 0.18697071 0.117435016 0.08078506 0.12459622 0.097022794 0.18078206
0.19519489 -0.009449783 -0.111601904 0.07502191 -0.26486558 -0.14155662 0.137166 -0.088293165
0.14610675 0.004127613 -0.15720864 0.14077945 -0.30185965 -0.341838 0.04701513 -0.15935679
0.33138946 0.21259093 0.14762026 -0.025929317 0.1818947 0.09937614 0.024099484 -0.062118616
-0.08919952 0.0022414236 0.087361455 0.1678254 -0.08461934 0.0067272624 -0.30048603 0.044278983
-0.0014235298 -0.125407 0.22481494 -0.083897874 0.21471517 -0.073848695 -0.25321215 0.030468171
