ML_deseases/tfliteModels/tomato.tflite (tflite, 45888 bytes, 8 tensors)

sequential/conv2d/Relu;sequential/conv2d/BiasAdd;sequential/conv2d_2/Conv2D;sequential/conv2d/Conv2D;sequential/conv2d/BiasAdd/ReadVariableOp f4 [32, 3, 3, 3]
0	0x3b847de3	0.004043327
1	0xbba0fd30	-0.004912995
2	0x3ac5d821	0.0015094319
3	0x3b4f5c80	0.0031640828
4	0xbbdcde96	-0.0067404015
5	0x3a9ef826	0.0012128397
6	0x3b6594b2	0.0035031256
7	0xbb9b57c6	-0.004740688
8	0x3a882ea3	0.0010389875
9	0x3b4c4d34	0.0031173946
10	0xbbcff648	-0.0063464977
11	0x3a29e8ab	0.00064815086
12	0x3b733505	0.003711046
13	0xbbeaace9	-0.007161726
14	0x3a90e0b5	0.0011053296
15	0x3b35c863	0.0027737848
16	0xbbe23dba	-0.006904331
17	0x3a68e604	0.00088843727
18	0x3b637fdb	0.003471366
19	0xbb95b943	-0.004569204
20	0x3afd4f67	0.0019326032
21	0x3b3ff79e	0.0029291878
22	0xbbcede6d	-0.0063131363
23	0x3a4d4293	0.000783005
24	0x3b49e8f2	0.0030809012
25	0xbb8c4064	-0.004280137
26	0x3aaff0bb	0.0013423184
27	0xbb48b025	-0.0030622568
28	0xbb33867c	-0.0027393391
29	0x3b8fb669	0.0043857587
30	0xbb2c6d89	-0.0026310405
31	0xbb680267	-0.0035401823
32	0x3b2de9b2	0.0026536998
33	0x391095a8	0.00013788661
34	0xbb80a1af	-0.003925524
35	0x3b29a174	0.0025883587
36	0xbba4ab3d	-0.005025296
37	0xbb9e8b03	-0.004838349
38	0x3af0b65a	0.0018364892
39	0xbb614e10	-0.0034378804
40	0xbbb7f877	-0.005614336
41	0x3af484bb	0.001865528
42	0x3a8ce401	0.0010749103
43	0xbb8e2fa5	-0.0043391758
44	0x3b05c827	0.002041349
45	0xbab27b3d	-0.001361705
46	0xbbcc1378	-0.006227907
47	0x3b529d8a	0.0032137358
48	0xb9b99ace	-0.00035401288
49	0xbbbcb6f3	-0.005759114
50	0x3b2fffdd	0.0026855387
51	0x3acc0a90	0.0015567113
52	0xbbb83471	-0.005621486
53	0x3b03e511	0.0020125548
54	0xbb46453b	-0.0030253667
55	0xbb303af6	-0.0026890612
56	0xba7f96f4	-0.0009749972
57	0xbba7eaf1	-0.0051244427
58	0xbb7ed2fe	-0.0038883085
59	0xbb90bc88	-0.004417006
60	0xbb637e59	-0.003471276
61	0xbb6a74df	-0.0035775227
62	0xbb7db2c7	-0.0038711296
63	0x39935af3	0.00028105787
64	0xba53ef5b	-0.0008084678
65	0x3a8e1186	0.0010838963
66	0xb97c4083	-0.00024056625
67	0xba28d97a	-0.0006441098
68	0x3a01642d	0.0004935887
69	0xba00dcaa	-0.0004915694
70	0xb9b116a1	-0.0003377693
71	0xba2d3d28	-0.0006608539
72	0x3b657c98	0.003501689
73	0x3b338e17	0.0027397925
74	0x3b649bb7	0.0034882852
75	0x3b80dacc	0.0039323326
76	0x3b5ae036	0.00333978
77	0x3b96db9f	0.0046038176
78	0x3b5936e7	0.0033144297
79	0x3b3bdd4a	0.0028665834
80	0x3b40c022	0.0029411395
81	0xbb159b68	-0.0022828225
82	0x3b0b8126	0.0021286695
83	0xba6b81cb	-0.0008983879
84	0xbb564aeb	-0.0032698463
85	0x3ba27f39	0.004959014
86	0xba297c64	-0.0006465374
87	0xbb7f4442	-0.0038950597
88	0x3b8d00bd	0.0043030665
89	0xba80a91c	-0.0009816024
90	0xbb5b0212	-0.0033417982
91	0x3b000482	0.0019533937
92	0xbab27056	-0.0013613801
93	0xbabc10ac	-0.001434823
94	0x3bad31a4	0.0052854586
95	0x3a932137	0.0011225109
96	0xbb3579a8	-0.002769092
97	0x3b9dfcd0	0.0048213974
98	0xba1f17a3	-0.0006068891
99	0xbb725b61	-0.0036980736
100	0xba1bd220	-0.0005944092
101	0xba1583d3	-0.0005703542
102	0xbb184b10	-0.00232381
103	0x3afa95bd	0.0019118112
104	0x3a826691	0.000994878
105	0xbb45e6fa	-0.0030197487
106	0x3b0951b6	0.0020953245
107	0xba99e848	-0.0011742199
108	0xbaaf0400	-0.0013352633
109	0xbb36d411	-0.0027897398
110	0x3b8e9592	0.0043513263
111	0xbb37746c	-0.0027992977
112	0xbb49ff23	-0.003082224
113	0x3b90a8b6	0.004414643
114	0xbad44955	-0.0016196171
115	0xbad73c5f	-0.001642119
116	0x3b8b34a7	0.00424822
117	0xbb8ac56f	-0.0042349617
118	0xbb463917	-0.003024643
119	0x3b7d8a5f	0.0038687212
120	0xbb99b3df	-0.0046906318
121	0xbb439f0a	-0.0029849433
122	0x3bb080d4	0.0053864513
123	0xbb98d7d1	-0.004664399
124	0xbaee35a2	-0.0018173943
125	0x3b807c5a	0.003921074
126	0xbb64bacb	-0.0034901376
127	0xbadd144b	-0.001686701
128	0x3b6bda74	0.0035988363
129	0xbb8d3797	-0.0043096053
130	0xbb015749	-0.0019735864
131	0x3b89afe9	0.0042018783
132	0xbb87b222	-0.004141108
133	0xbab0ebd9	-0.0013498022
134	0x3b6b5002	0.0035905843
135	0xbb144754	-0.0022625523
136	0x3b09f34c	0.0021049557
137	0x3ada2741	0.0016643779
138	0xbb5b9845	-0.0033507508
139	0x3a5ef8f7	0.00085057266
140	0x3aef1202	0.001823962
141	0xbae98496	-0.0017816003
142	0x3a3128cf	0.0006758095
143	0x3b77acf7	0.0037792304
144	0xbb6a10f4	-0.0035715671
145	0x3af15ad2	0.0018413907
146	0x3b215e2f	0.0024622788
147	0xbbb8751e	-0.005629196
148	0xb7a2ac7a	-1.939222e-05
149	0x3afc5e6f	0.0019254218
150	0xbbb1591f	-0.0054122354
151	0xba8812a9	-0.0010381538
152	0x3b0eee4c	0.0021809516
153	0xbb398e54	-0.0028313594
154	0x3b03fc37	0.0020139345
155	0x3b74e20d	0.0037366182
156	0xbbf392a3	-0.007433252
157	0xbb138c6f	-0.0022514125
158	0x39b113f8	0.0003377495
159	0xbc03cd22	-0.008044513
160	0xbb81cf48	-0.0039614774
161	0x3a5ee181	0.00085022306
162	0xbba1813f	-0.0049287374
163	0x3b171bbe	0.0023057307
164	0xba185c62	-0.0005812106
165	0xbb974eb3	-0.004617536
166	0x3b2d5a46	0.0026451512
167	0xb690f472	-4.3199916e-06
168	0xbb57dc38	-0.0032937657
169	0x3ac6ca1c	0.0015166434
170	0xba7383e1	-0.0009289366
171	0xbbd524a8	-0.006504614
172	0x3b6c62e2	0.003606968
173	0xb967f458	-0.00022120902
174	0xbba52f41	-0.0050410335
175	0x3b62c1ae	0.0034600305
176	0x397b1be6	0.00023947618
177	0xbb7c4bff	-0.0038497446
178	0x3b250e9e	0.0025185714
179	0xb99ca8eb	-0.00029880492
180	0xbbb557bb	-0.00553414
181	0x3b652124	0.003496238
182	0x39156b0b	0.00014249624
183	0xbb982d31	-0.004644059
184	0x3b2a65a4	0.0026000524
185	0x3a301290	0.0006716633
186	0xbb3f5297	-0.0029193514
187	0x3b0b40d3	0.0021248355
188	0xb78841e3	-1.6243144e-05
189	0x3af71f90	0.0018854011
190	0xbba6b638	-0.00508764
191	0x3b23253c	0.002489402
192	0x3b22015c	0.0024720049
193	0xbbaf566f	-0.00535088
194	0x3b2c2fd1	0.0026273618
195	0x3b1cedb0	0.0023945384
196	0xbbacf706	-0.005278471
197	0x3b2e587a	0.002660303
198	0x3b187c80	0.0023267567
199	0xbba4a6e6	-0.0050247787
200	0x3b377497	0.0027993077
201	0x3b27f95b	0.0025630805
202	0xbb9a5cce	-0.00471077
203	0x3b5caa1a	0.0033670724
204	0x3b189cea	0.0023286887
205	0xbb9baa03	-0.0047504916
206	0x3b3324ac	0.002733509
207	0x3b36ca5f	0.0027891619
208	0xbb95cead	-0.004571757
209	0x3b13cd61	0.0022552835
210	0x3b1f04b5	0.002426428
211	0xbb997043	-0.004682572
212	0x3b519d8d	0.0031984777
213	0x3b334839	0.002735628
214	0xbb935a5a	-0.0044968547
215	0x3b433cda	0.002979091
216	0x38daf520	0.00010440708
217	0xba55e836	-0.00081599073
218	0xb9c08b87	-0.0003672505
219	0xb9b2ac52	-0.00034079194
220	0xb9ccfa0f	-0.0003909622
221	0xb98ddcfc	-0.00027058262
222	0xb9ceae69	-0.00039421328
223	0xba94875f	-0.0011331848
224	0xbab6730f	-0.0013919788
225	0x3a2a8796	0.0006505189
226	0xb9e905e9	-0.00044445627
227	0x38bab547	8.902937e-05
228	0x3a5f5503	0.00085194426
229	0xbab4fc83	-0.0013808165
230	0x39bc0201	0.00035859647
231	0x39ae4ff8	0.00033247448
232	0xbafbefc0	-0.0019221231
233	0xba7aae01	-0.0009562672
234	0x3a6e6d07	0.0009095226
235	0xba7dec90	-0.00096864346
236	0x39650d66	0.00021844133
237	0x3a8c2efc	0.0010695155
238	0xbadfeef2	-0.0017084761
239	0xb97ba1cf	-0.00023997504
240	0x3a32311e	0.000679748
241	0xbac816e9	-0.0015265617
242	0xba166343	-0.0005736837
243	0xbbe88b07	-0.0070966515
244	0xb7324359	-1.0625307e-05
245	0xbac75bfc	-0.0015209909
246	0xbc29361d	-0.010327843
247	0xba72da8d	-0.0009264134
248	0xbbc89f0d	-0.006122476
249	0xbba3c2cd	-0.0049975873
250	0x3b80cee4	0.0039309133
251	0x394b6513	0.00019397242
252	0xbc049667	-0.008092499
253	0xba439da0	-0.00074621476
254	0xbb7763f6	-0.003774879
255	0xbc4b7c40	-0.01241976

sequential/conv2d/BiasAdd/ReadVariableOp f4 [32]
0	0x3e5f1eb7	0.2178906
1	0x3f9c8f23	1.2231182
2	0xbc777215	-0.015102883
3	0xbdfee4fa	-0.124460176
4	0x3f123a23	0.5711996
5	0x3f847c7f	1.0350493
6	0x3f3b8d82	0.732628
7	0xbe80f336	-0.25185555
8	0xbe43e2ae	-0.1912944
9	0x3f8a279c	1.0793338
10	0x3e3c8f71	0.18414094
11	0xbf201c61	-0.625433
12	0x3cff885b	0.031192949
13	0xba2c7da7	-0.0006580003
14	0x3f7d9194	0.9905026
15	0xbee6bd3c	-0.4506625
16	0x3da13d35	0.078730024
17	0xbd333a7b	-0.043756943
18	0xbfec8253	-1.8477272
19	0xbcbd9537	-0.02314244
20	0x3edd3d20	0.43210697
21	0xc00f1411	-2.2355998
22	0xbd8a9184	-0.06766036
23	0x3e32ecaa	0.17473093
24	0x3f2581e9	0.6465135
25	0xbdf09392	-0.11746897
26	0x3e23c703	0.15993886
27	0x3fb6428e	1.4239061
28	0x3f570839	0.8399692
29	0x3f959422	1.1685832
30	0xbe00e2b8	-0.12586486
31	0x3faf2788	1.3683939

sequential/conv2d_1/BiasAdd/ReadVariableOp f4 [16]
0	0x3f539335	0.82646495
1	0x3f425512	0.75911057
2	0x3f4a011f	0.7890796
3	0xbd1a70ac	-0.03770511
4	0xbff53582	-1.9156954
5	0xbdc8dc7a	-0.098076776
6	0xbfc1ae38	-1.5131292
7	0xc05c4fa8	-3.4423618
8	0xc018c52c	-2.3870344
9	0x3f78fdfa	0.9726254
10	0x401143fb	2.2697742
11	0xc00b8f3e	-2.1806178
12	0xbe6a4f1c	-0.2288174
13	0x3eb87a42	0.36030775
14	0xc0067937	-2.1011484
15	0xbe8ec328	-0.27883267

sequential/conv2d_2/BiasAdd/ReadVariableOp f4 [32]
0	0xc075775e	-3.8354106
1	0xbafe789a	-0.0019414604
2	0xbdfeed23	-0.12447574
3	0x3ed83fdc	0.4223622
4	0xbfef428c	-1.8692183
5	0xbf884a5f	-1.0647696
6	0x3f788a23	0.9708578
7	0x400bc82e	2.184093
8	0x3d6fe6c2	0.058569677
9	0x3f6357c4	0.88805795
10	0x3f37c900	0.71791077
11	0x3e2d2f7e	0.16912648
12	0xbf7df5c6	-0.99203146
13	0x3ecc6020	0.39917088
14	0xbf7766ab	-0.96641034
15	0xc06d5840	-3.7085114
16	0xbef1813c	-0.4716891
17	0xc06a7c4d	-3.6638367
18	0xc069f626	-3.6556487
19	0x3e45d64d	0.1932003
20	0xbff231fb	-1.8921503
21	0xbff9061a	-1.9454987
22	0x400b8f31	2.1806147
23	0x40176c18	2.3659725
24	0xbcac2704	-0.021014698
25	0xbf06925c	-0.52567077
26	0x3fb2b0a3	1.3960155
27	0xbf5c8e96	-0.8615507
28	0xc0101c93	-2.251744
29	0xc01829a6	-2.377542
30	0xbeafc968	-0.34333348
31	0x3ec1a667	0.37822267

sequential/conv2d_1/Conv2D f4 [16, 3, 3, 32]
0	0x403ed86f	2.98196
1	0xbf3bb78b	-0.7332694
2	0x3e0e680e	0.13906881
3	0x3f809e7b	1.0048364
4	0xbfa38714	-1.2775598
5	0xbf8e3674	-1.1110368
6	0x3fe78237	1.8086613
7	0xc0579e88	-3.369051
8	0xbcdceabf	-0.026967404
9	0xc05cf775	-3.4526036
10	0x3ea93e78	0.33055472
11	0xbd0f605c	-0.035004005
12	0xbe545c37	-0.20738302
13	0x3f8fff0d	1.124971
14	0xbf1f26ff	-0.6216888
15	0xbef86ffe	-0.48522943
16	0xbfc3e9d8	-1.5305738
17	0x3d52f836	0.051506244
18	0xbf1e1951	-0.6175738
19	0xbd84ab77	-0.06478017
20	0xbf05ca04	-0.52261376
21	0xbf33fcf7	-0.7030787
22	0xbdc447f2	-0.09584035
23	0x3f949ad4	1.160975
24	0xbf3ce7a7	-0.73790973
25	0x3d3858e1	0.045006637
26	0x3e820a6a	0.2539857
27	0xbf86fdd7	-1.0546216
28	0x3f76c387	0.963921
29	0x3eb2421d	0.34816065
30	0xbdcb6dc1	-0.09933043
31	0xbf64cb44	-0.8937266
32	0x4090cd50	4.5250626
33	0xbcebbdd6	-0.028777044
34	0x3ed1e316	0.40993565
35	0xbe859fa5	-0.26098362
36	0x3e0160c8	0.12634575
37	0xbf5bc206	-0.8584293
38	0xbe15ef84	-0.14642149
39	0xc0267ec9	-2.6014884
40	0x3e04e760	0.12978888
41	0xbf2e5a88	-0.6810689
42	0x3e93d2ba	0.2887171
43	0xbe8ea810	-0.27862597
44	0xbcad452f	-0.021151153
45	0xbe8bb37c	-0.27285373
46	0x3f39f534	0.72639775
47	0x3f964719	1.1740447
48	0xbe545633	-0.20736007
49	0x3d94ca1c	0.07265112
50	0x3e5f0a48	0.21781266
51	0x3e0ec9d1	0.13944174
52	0xbdff4526	-0.12464361
53	0x3f20b0a5	0.6276954
54	0xbd5c651d	-0.053807367
55	0x406e5118	3.7236996
56	0xbe959816	-0.29217595
57	0xbe3bacac	-0.18327588
58	0xbe994ea9	-0.29942825
59	0x3ea06846	0.31329554
60	0x40093397	2.1437738
61	0xbec770bc	-0.38953197
62	0xbe204b29	-0.15653671
63	0xbf78664f	-0.9703111
64	0x403c13c9	2.9387076
65	0xbea640d4	-0.32471335
66	0x3e3bda4d	0.18344994
67	0x3e8a9355	0.2706553
68	0xbf11ab7b	-0.56902283
69	0xbe1d7f1e	-0.15380523
70	0x3fd80438	1.6876287
71	0xc0803fc9	-4.0077863
72	0xbe52356d	-0.20528193
73	0xbffd631b	-1.979587
74	0x3f67ddae	0.9057263
75	0x3e90c571	0.28275636
76	0xbd90ed10	-0.07076466
77	0x3f676c0d	0.9039925
78	0xbf40643e	-0.7515296
79	0x3de5ebdc	0.11226627
80	0xbfc27dc8	-1.5194635
81	0x3d4275fb	0.047475796
82	0x3f619398	0.88115835
83	0x3daa48a2	0.08314635
84	0xbfc1b554	-1.5133462
85	0xbfaa465a	-1.330272
86	0x3e3abdf3	0.18236522
87	0x4007d1ac	2.1221724
88	0xbff3dedb	-1.9052385
89	0x3e8b4cc6	0.2720701
90	0x3dde8635	0.10865442
91	0xbf89fa6f	-1.0779551
92	0x3f8ca717	1.0988492
93	0xbdef01e9	-0.11670286
94	0xbd3aa586	-0.04556801
95	0xbf579af9	-0.84220845
96	0x406c38cd	3.6909668
97	0xbda7ee9a	-0.081998065
98	0xbdd2ee66	-0.10299377
99	0x3e8ab069	0.27087715
100	0xbf5c94c9	-0.8616453
101	0xbface289	-1.3506633
102	0x3f57d430	0.8430815
103	0xbffc135e	-1.969341
104	0x3efa69b8	0.48908782
105	0xc065288f	-3.5806005
106	0xbf982f04	-1.1889348
107	0xbef71b2b	-0.48262915
108	0xbf0fc08a	-0.56153166
109	0xbd6b9f0d	-0.05752473
110	0x3c89a3fe	0.01680183
111	0x3f42551a	0.75911105
112	0xbf23a0fe	-0.6391753
113	0xbbb38356	-0.005478303
114	0xbe3d032c	-0.18458241
115	0xbc8f6adb	-0.017507007
116	0x3f27e8c7	0.65589565
117	0x3f5da0a6	0.86573255
118	0x3ebf0c6d	0.37314168
119	0x405ce266	3.4513183
120	0xbf9160b0	-1.1357632
121	0x3e8c170d	0.27361336
122	0xbd9b7e59	-0.07592458
123	0x3ef1e1b3	0.47242507
124	0x3f5286ff	0.8223724
125	0xbed0b39c	-0.4076203
126	0x3ed3a833	0.41339263
127	0xbfa3f671	-1.2809583
128	0x40d7d207	6.744388
129	0x3ef21163	0.4727889
130	0x3e41b10f	0.18915199
131	0xc03b1ca3	-2.9236228
132	0x3f1547ad	0.58312494
133	0xbfa4330b	-1.2828077
134	0xc063a0cf	-3.55669
135	0x3b3ff735	0.0029291634
136	0x3f1ee503	0.62068194
137	0x3cf4fa1f	0.029904423
138	0xbf9248fa	-1.1428521
139	0xbfe04260	-1.7520256
140	0xbf252611	-0.6451121
141	0xc0590906	-3.3911757
142	0x3ff4f9d1	1.9138738
143	0x401ee881	2.482941
144	0x40309992	2.7593732
145	0xbd107304	-0.035265937
146	0xbf3538b0	-0.70789623
147	0xbd95b8c6	-0.07310633
148	0x400b21da	2.1739411
149	0x4059775a	3.3979096
150	0x3ecf0f44	0.40441334
151	0x40f7a8d0	7.739357
152	0xc03dad7f	-2.9637144
153	0xbf0524b8	-0.52009153
154	0xbfa01dc5	-1.2509085
155	0x400df987	2.218355
156	0x4024ecc4	2.576951
157	0xbffeecda	-1.9916031
158	0x3f0e0170	0.55470943
159	0xbf8f4839	-1.1193916
160	0x4086f43c	4.217314
161	0x3e42f4d6	0.1903871
162	0xbe19aede	-0.15008113
163	0xbf4feb60	-0.8121853
164	0x3c020889	0.007936605
165	0xbf43876d	-0.7637852
166	0xbef0aa5a	-0.47004968
167	0xc00d69f9	-2.209593
168	0x3d09fc70	0.03368801
169	0xbff9d00c	-1.9516616
170	0x3ec41410	0.38296556
171	0xbe9f833a	-0.31154805
172	0xbd1f4738	-0.03888628
173	0xbf09d2e7	-0.53837436
174	0x3eabc025	0.33545032
175	0x3fa5bd21	1.2948343
176	0x3f97a6b2	1.1847746
177	0x39f209e9	0.0004616522
178	0xbc177f75	-0.009246697
179	0x3c7bba96	0.01536431
180	0x3de1c506	0.11023907
181	0x3f314b10	0.6925516
182	0xbec4f1e2	-0.38465792
183	0x409d494c	4.9151974
184	0xc030fbe9	-2.7653754
185	0xbe6a2c50	-0.22868466
186	0xbeb861e0	-0.36012173
187	0x3f3aa2ff	0.7290496
188	0x3fd1f6e7	1.6403474
189	0xbf4388ad	-0.76380426
190	0x3ebaf53d	0.36515227
191	0xbf8aa831	-1.0832578
192	0x3fef44e8	1.8692904
193	0x3e43b219	0.19110908
194	0xbdc914e7	-0.0981844
195	0x3fafda40	1.373848
196	0xbf875abd	-1.0574566
197	0x3e90890c	0.28229558
198	0x401551c9	2.3331168
199	0xc02d941a	-2.7121644
200	0xbee102f9	-0.4394758
201	0xc05fb16c	-3.495204
202	0xbf863fd4	-1.0488229
203	0x3c558b58	0.01303371
204	0xbf18bba2	-0.59661305
205	0x3ee9b628	0.45646787
206	0xbf71d3e6	-0.94463956
207	0xbe686320	-0.22694063
208	0xbfc9cb50	-1.5765171
209	0x3d5b931a	0.053607084
210	0x3d9e1050	0.07717955
211	0x3de8c04f	0.11364805
212	0xbea19249	-0.3155692
213	0xbf6a7bfa	-0.91595423
214	0xbe1c02a7	-0.15235387
215	0x3f448698	0.76767874
216	0x3dcb6ba3	0.099326394
217	0x3f2d55bd	0.6770895
218	0x3ef55977	0.4791982
219	0xbea5c74e	-0.3237862
220	0xbd2931ef	-0.041307386
221	0x3d8c08f6	0.06837647
222	0x3e9b2317	0.3030021
223	0xbf77a4e9	-0.9673601
224	0x409005eb	4.5007224
225	0x3e0977f3	0.13424663
226	0x3ee6a2da	0.4504612
227	0xbe09e410	-0.13465905
228	0xbedc5067	-0.43030092
229	0xbef9fd0e	-0.48825878
230	0xbf084386	-0.5322803
231	0xbf6719cc	-0.9027374
232	0xbda299e1	-0.07939506
233	0xc0179aae	-2.368816
234	0xbe11a526	-0.14223155
235	0xbe9b1f2a	-0.30297214
236	0xbef84f3e	-0.48497957
237	0xbfaa3e60	-1.3300285
238	0x3e49ebb3	0.19718818
239	0x3f982edf	1.1889304
240	0x3f9b7310	1.2144489
241	0xbd99b8d0	-0.07505953
242	0xbde4d610	-0.11173642
243	0xbd46c3b6	-0.04852649
244	0x3f71d185	0.94460326
245	0x3ff2da5a	1.8972886
246	0xbf2ee19b	-0.68312997
247	0x409cd25c	4.9006786
248	0xbfec18bb	-1.8445047
249	0x3e583ea0	0.2111764
250	0xbf091d6b	-0.53560513
251	0x3fa91bbe	1.3211591
252	0x3f93f86e	1.156019
253	0xbecca61e	-0.39970487
254	0x3da42c3f	0.08016252
255	0xbf828d7b	-1.0199426

sequential/conv2d_2/Conv2D f4 [32, 3, 3, 16]
0	0xbe5063e8	-0.20350611
1	0xbe59e833	-0.21279983
2	0xbf0829b7	-0.5318865
3	0x3de83e21	0.11339975
4	0xbed80e66	-0.42198485
5	0xbde98895	-0.11403004
6	0xbf426518	-0.75935507
7	0x3e19f7ad	0.15035887
8	0xbf8e92ad	-1.1138512
9	0xbf72e51f	-0.9488086
10	0xbf0e718d	-0.55642015
11	0xbe7023f0	-0.23451209
12	0xbeff8721	-0.49907783
13	0x3e7f58fe	0.24936292
14	0xbd0e9d6a	-0.03481809
15	0x3fd5a9b0	1.669241
16	0xbf012849	-0.50452095
17	0xc09b7379	-4.857846
18	0xbf76d719	-0.9642196
19	0xbcce40f8	-0.025177464
20	0xbecc3f5f	-0.39892098
21	0x3d02d32e	0.031939678
22	0x3e90d01f	0.28283784
23	0x3d55fce3	0.052243125
24	0xbfd0f06a	-1.6323369
25	0xbf23c195	-0.6396726
26	0xbf86a90a	-1.0520337
27	0xbec90a61	-0.3926573
28	0xbf23ee0f	-0.64035124
29	0xbec1181e	-0.37713712
30	0xbf99510c	-1.1977859
31	0x3fadc651	1.3576146
32	0xbf3ee832	-0.7457305
33	0x3f74714b	0.9548537
34	0xbf217278	-0.6306529
35	0xbd27549a	-0.040852167
36	0xbf442047	-0.7661175
37	0xbc1888b0	-0.009309933
38	0xbf24e677	-0.6441416
39	0xbe4213ae	-0.1895282
40	0xbda11681	-0.078656204
41	0xbed6b7f3	-0.41937217
42	0xbe62a2e8	-0.22132456
43	0x3dbb2654	0.0913817
44	0x3f3a0977	0.7267069
45	0xbdd90e1e	-0.10598396
46	0x3d835326	0.06412344
47	0x3f771462	0.96515477
48	0xbf35cb4c	-0.7101333
49	0x3ede35ae	0.4340033
50	0xbf540c17	-0.8283095
51	0xbc98961f	-0.01862627
52	0x3f50bc3e	0.81537235
53	0x3d739ce0	0.05947578
54	0x3b8bcd68	0.0042664297
55	0xbd714d77	-0.058911767
56	0xbf257694	-0.6463406
57	0x3f82d04b	1.0219816
58	0xbfa48e3a	-1.2855904
59	0xbe3beb3e	-0.18351457
60	0xbe390ab7	-0.18070494
61	0x3f0c3a64	0.547766
62	0xbdc981e2	-0.09839226
63	0x3f4437a6	0.7664741
64	0xbf289732	-0.65855706
65	0xbeac6cc8	-0.33676744
66	0xbfbdd9e5	-1.4832121
67	0x3d82fcfa	0.06395908
68	0x3f8969b9	1.0735389
69	0x3dc92ca9	0.098229714
70	0x3fb50168	1.4141054
71	0x3e0d8d15	0.1382335
72	0xbf89067e	-1.0705106
73	0x3f366096	0.7124113
74	0xbffc27b0	-1.9699612
75	0xbe85fc7b	-0.2616919
76	0xbdd7c448	-0.105354846
77	0x3dafe84d	0.0858923
78	0xbfc9ce8a	-1.5766156
79	0x3ea4dc7b	0.32199463
80	0xbe13d414	-0.1443637
81	0x3f8834e4	1.0641141
82	0xbe937d8e	-0.28806728
83	0x3dd2bb37	0.10289615
84	0xbf674277	-0.9033579
85	0x3cd9aee9	0.026572661
86	0x3f030f02	0.51194775
87	0xbefd839f	-0.4951448
88	0x3f7fc108	0.9990392
89	0xbe292d76	-0.16521248
90	0xbf84d173	-1.0376419
91	0x3e0b9fec	0.13635224
92	0x3f470c2a	0.77752936
93	0x3e2a62cb	0.16639249
94	0xbddb0475	-0.106942095
95	0x3eb6df36	0.3571717
96	0xbf8c3659	-1.0954086
97	0x3f924bf2	1.1429427
98	0x3e7c7277	0.2465304
99	0xbd09981a	-0.03359232
100	0xbf10b64e	-0.56528175
101	0x3d83e02e	0.06439243
102	0xbf3f60d3	-0.7475712
103	0x3c9b099f	0.018925486
104	0x3fc29c4f	1.5203952
105	0xbe1c6373	-0.15272312
106	0xbf391155	-0.7229207
107	0x3d00f75d	0.031485904
108	0x3f7c70a2	0.98609364
109	0x3da28953	0.07936349
110	0x3f8cd0c1	1.1001207
111	0x3f0987d2	0.5372287
112	0xbf111351	-0.566701
113	0x3faa0fd8	1.3286085
114	0x3803c9a0	3.142061e-05
115	0xbdbe8555	-0.09302775
116	0x3e6937a7	0.22775136
117	0x3dc5fa7f	0.09666919
118	0x3dceee12	0.10104002
119	0x3e52da55	0.205911
120	0x3f4b380f	0.79382414
121	0xbf060d02	-0.523636
122	0xbf9488ba	-1.1604226
123	0xbe004c9e	-0.12529227
124	0x3f73d916	0.9525312
125	0xbdd3d8be	-0.10344075
126	0x3ed3db1a	0.413781
127	0xbdfe23fb	-0.124092065
128	0xbf015333	-0.50517577
129	0x3fa13db1	1.2596952
130	0x3e9e1843	0.30877885
131	0xbdaaf738	-0.083479345
132	0xbdfd2cbd	-0.12362049
133	0x3d623aa9	0.055231724
134	0xbe4d0af1	-0.20023705
135	0x3e992fc6	0.2991926
136	0x3f83124d	1.023996
137	0xbfab4dbf	-1.3383101
138	0xbf0dddff	-0.55416864
139	0x3f131632	0.5745574
140	0x3f7d952b	0.9905574
141	0xbf03535b	-0.51299065
142	0x3f245369	0.64189774
143	0x3bcd7214	0.0062697027
144	0xbf6f5a8c	-0.9349754
145	0xbebad455	-0.3649012
146	0xbf0a6b65	-0.5407012
147	0x3d406a7e	0.04697656
148	0xbfb7531a	-1.4322236
149	0xbd6d6452	-0.057957
150	0xbeb9d559	-0.36295584
151	0x3e2b89d8	0.16751802
152	0x3e715123	0.23566107
153	0x3eba1794	0.36346114
154	0xbe299809	-0.16561903
155	0xbfc8c23a	-1.5684273
156	0xbe554a0a	-0.20829025
157	0x3e3dc803	0.1853333
158	0x3d8957c4	0.06706193
159	0xbfe763ed	-1.807737
160	0x3ec9aa6c	0.39387834
161	0xbf1df156	-0.61696374
162	0x3cbb501d	0.02286535
163	0xbdfcaf71	-0.1233815
164	0xc0199100	-2.399475
165	0xbdc4770d	-0.0959302
166	0xbfb65f62	-1.4247859
167	0x3fa68a73	1.3011001
168	0x3f1975ca	0.59945357
169	0xbe912120	-0.28345585
170	0x3e9a7efe	0.30175012
171	0xbfc472e2	-1.534756
172	0xbee98c8a	-0.45615035
173	0xbfc0e7e8	-1.5070772
174	0xbdcc77cd	-0.09983788
175	0xbf9675e7	-1.1754731
176	0xbde2ce32	-0.11074485
177	0xbd86b409	-0.06577308
178	0xbd9b88cd	-0.07594452
179	0x3ccb069a	0.024783421
180	0xbfbbde4e	-1.4677217
181	0xbd4fc885	-0.05072834
182	0xbee421da	-0.44557077
183	0x3ed0a5b1	0.40751413
184	0x3ebbf22f	0.3670821
185	0x3f05844e	0.52155006
186	0x3c3ef30a	0.011654625
187	0xc01a3265	-2.4093258
188	0xbe551b8b	-0.20811288
189	0x3d665876	0.056236707
190	0x3e429242	0.19001105
191	0xbffb344a	-1.9625332
192	0xbe531896	-0.20614848
193	0xbe99c7ea	-0.30035335
194	0x3ea38ce0	0.31943417
195	0x3d4f0b57	0.050547924
196	0xbeefa828	-0.4680798
197	0xbdfc77fa	-0.12327571
198	0xbdf3af40	-0.11898661
199	0x3ebfa806	0.3743288
200	0x3e85b17b	0.2611197
201	0x3ea11aa3	0.31465635
202	0x3f19f365	0.60137016
203	0xbfa2b16b	-1.2710394
204	0xbfa1510a	-1.2602856
205	0xc02825ac	-2.6272993
206	0x3f031040	0.5119667
207	0xbfb0ac97	-1.380267
208	0x3f8c5485	1.0963293
209	0xbea5c920	-0.3238001
210	0xbf112385	-0.56694824
211	0xbd9aa10a	-0.07550247
212	0x3f776301	0.9663544
213	0x3c3fc790	0.011705294
214	0xbf60c068	-0.8779359
215	0x3f20419d	0.6260012
216	0x3f33f5a2	0.7029668
217	0x3f1917f7	0.5980219
218	0x3fa47b7f	1.2850188
219	0xbff1c216	-1.8887355
220	0xbfc66a6e	-1.550123
221	0xc02ee7b1	-2.7328913
222	0x3ed4e29c	0.4157914
223	0xbf4f299a	-0.80922854
224	0xbe0a32cf	-0.13495944
225	0x3d0a72a8	0.03380075
226	0xbefd7729	-0.49504974
227	0x3d976f25	0.07394246
228	0xbf9fa825	-1.2473189
229	0xbdcd02c5	-0.10010294
230	0xbee2cd6b	-0.44297346
231	0x3f0348b5	0.5128282
232	0x3e75d1c0	0.24005795
233	0x3f29b997	0.6629881
234	0x3f723e62	0.9462644
235	0xbff741ae	-1.9316919
236	0xbf815ba5	-1.0106093
237	0xc09f0cdc	-4.9703197
238	0x3f038eaa	0.51389563
239	0xbfb6517e	-1.424362
240	0xbf181984	-0.59413934
241	0xbe4f33d7	-0.20234619
242	0x3e00321e	0.12519118
243	0xbd0fb6bc	-0.03508638
244	0x3f24c4a5	0.64362556
245	0xbe112982	-0.1417599
246	0x3d71822c	0.058962032
247	0xbd4597ad	-0.048240352
248	0x3ee4a3ed	0.44656315
249	0xbf0df1fc	-0.55447364
250	0x3df2d2df	0.11856627
251	0xbe4c9423	-0.19978385
252	0xbfb01c9c	-1.3758731
253	0xbfe73f0d	-1.8066117
254	0x3f92b188	1.1460428
255	0xbfad4df4	-1.3539414

sequential/output_layers/BiasAdd/ReadVariableOp f4 [10]
0	0xbf4ef7e6	-0.80847013
1	0xbf40a4fe	-0.7525176
2	0x3f8d1e12	1.1024802
3	0xbe879f16	-0.2648856
4	0xbf65dfb3	-0.8979446
5	0x3f3e4ee5	0.74339134
6	0xbe096af4	-0.13419706
7	0xbdc1a511	-0.09455312
8	0xc027e9f3	-2.6236541
9	0x407135d0	3.7689095

sequential/output_layers/MatMul f4 [10, 32]
0	0xbdcd4edc	-0.10024807
1	0x3f8cb0cb	1.0991453
2	0x3df457de	0.11930822
3	0xbeec4ccf	-0.4615235
4	0x3f02222d	0.508334
5	0xc0102da8	-2.2527866
6	0xbf01bf59	-0.506826
7	0x3e263f03	0.16234975
8	0x3f860cc9	1.0472652
9	0x3e0879c6	0.13327703
10	0x3f397e8f	0.7245874
11	0xbe2021c9	-0.15637888
12	0xc04cbcb6	-3.199018
13	0x3f5a5c40	0.8529701
14	0x3d906e7c	0.07052323
15	0x3ec94e62	0.39317614
16	0x3ecece77	0.40391895
17	0xbe8d7fe6	-0.2763664
18	0x3eb2407d	0.34814826
19	0xc01c950b	-2.4465969
20	0x3ed20052	0.4101587
21	0x3ea880a9	0.3291066
22	0x3ec6f53b	0.3885897
23	0x3e739482	0.2378712
24	0xbf551f17	-0.83250564
25	0xbfd3a140	-1.6533585
26	0x4053eb67	3.3112428
27	0x3ef4b6fb	0.47795853
28	0x3e3da9e1	0.18521835
29	0xc01011e8	-2.251093
30	0x3eafe3f0	0.3435359
31	0x3f426003	0.7592775
32	0x3f09252c	0.53572345
33	0xbf08828c	-0.533242
34	0xbe225abc	-0.15854925
35	0xbb5d03d2	-0.00337242
36	0x3eb4cd68	0.35312963
37	0x3f2de9f1	0.6793509
38	0xbf2b1503	-0.66828936
39	0xbf81e736	-1.0148685
40	0xbe4c49f5	-0.19950087
41	0xbdb83d62	-0.08996083
42	0xbea6eda7	-0.3260319
43	0xbeb1289a	-0.3460129
44	0x3e902946	0.2815649
45	0x3eaef852	0.34173828
46	0x3ef0ab7e	0.47005838
47	0x3f4eb551	0.80745417
48	0xbd33528f	-0.043779906
49	0xbea549d1	-0.3228288
50	0x3f13da76	0.5775522
51	0xbe952e77	-0.29137012
52	0x3e72410e	0.23657629
53	0xbe927f7b	-0.28612885
54	0xbfe06454	-1.7530618
55	0xbe6ec7b1	-0.23318364
56	0x3f3990b1	0.72486407
57	0xbfa8b945	-1.318154
58	0xc022a764	-2.5414667
59	0x3f8ee887	1.1164712
60	0x3ece4378	0.4028585
61	0x3ebc78c5	0.3681089
62	0xbe5dc45b	-0.21656935
63	0x3f8c8881	1.0979158
64	0xbe8f44a7	-0.27982065
65	0x3e3b16cf	0.1827042
66	0xbd394faa	-0.04524199
67	0x3e210685	0.15725143
68	0x3ea9fae4	0.33199227
69	0x3eaf2614	0.3420874
70	0xbf204359	-0.62602764
71	0x3f30a5ab	0.6900279
72	0xbe83e787	-0.2576258
73	0x3e892918	0.26789165
74	0x3f30d5d2	0.69076264
75	0x3f0c02f7	0.54692024
76	0x3ea87d14	0.32907927
77	0xbfb6c4e1	-1.4278833
78	0x3d9281d3	0.07153668
79	0xbdd32629	-0.10310013
80	0xbfc40013	-1.5312523
81	0xbfccec64	-1.6009641
82	0xbe32eea6	-0.1747385
83	0x3ead4884	0.33844388
84	0x3f34c349	0.7061048
85	0x3f62730e	0.8845681
86	0xbf003c5b	-0.50092095
87	0x3e529cc5	0.20567615
88	0x3f5f2984	0.8717272
89	0x3f006518	0.50154257
90	0x3e622fc4	0.22088534
91	0x3e64f27e	0.22358128
92	0xbff4b1e3	-1.9116787
93	0xbf1961f2	-0.5991508
94	0xbcf86e30	-0.030325979
95	0xbf75364e	-0.9578599
96	0xbdf45722	-0.11930682
97	0x3f76e3e4	0.96441483
98	0xbea0bd5b	-0.31394467
99	0x3f3ef142	0.7458688
100	0xbf442288	-0.7661519
101	0x3ef5f1da	0.4803608
102	0x3efcc85f	0.4937162
103	0x3e8821c2	0.26588255
104	0xbf6f8ff4	-0.9357903
105	0x3e9d5cee	0.30734962
106	0xbfda6c67	-1.7064332
107	0xbe8e11bb	-0.27747902
108	0x3edf1663	0.43571767
109	0xbf8ad735	-1.0846926
110	0xbf32f4dc	-0.69904876
111	0xbedac6c4	-0.4272977
112	0xbe2ca88a	-0.16861168
113	0x3f2aa067	0.66651005
114	0x3f9f97a6	1.2468154
115	0x3f66c2bb	0.90140885
116	0xbf0f71ee	-0.5603322
117	0xc00639f7	-2.097288
118	0x3e578f3e	0.21050736
119	0x3f91262f	1.1339778
120	0x3ef59e73	0.4797245
121	0x406c88af	3.6958425
122	0xc014f1dd	-2.3272622
123	0x3f8a899b	1.0823244
124	0xbea5fcab	-0.32419333
125	0x3f2975d3	0.6619541
126	0xc02e7e63	-2.726464
127	0xbfda43d6	-1.7051952
128	0x3f57e3b8	0.84331846
129	0x3e972d57	0.2952678
130	0xbe202175	-0.15637763
131	0xbf1947e2	-0.5987531
132	0x3ee0e471	0.43924287
133	0x3f1ea073	0.61963576
134	0xbe85ba7a	-0.26118833
135	0xbd6e649a	-0.05820141
136	0xbe8a3fc5	-0.27001777
137	0xbe2953d3	-0.16535883
138	0x3de917a0	0.11381459
139	0x3eb7a149	0.35865238
140	0x3efac2ec	0.4897684
141	0xbf1557b0	-0.58336926
142	0xbfb1c645	-1.3888632
143	0x3f78ba2b	0.9715907
144	0xbe8d1f71	-0.2756305
145	0x3fd0bdde	1.6307943
146	0x3f631631	0.88705736
147	0xbf83f427	-1.0308884
148	0x3e43e910	0.19131875
149	0x3e247916	0.16061816
150	0x3e52ccae	0.20585892
151	0xbfddada4	-1.7318616
152	0xbea804ed	-0.32816258
153	0xbfaba6ad	-1.341024
154	0x3f1f82f3	0.6230919
155	0xbff4c0f3	-1.9121383
156	0xbbbded9a	-0.0057961466
157	0xbd837a32	-0.06419791
158	0xbe8f1c8f	-0.27951476
159	0x3fc3bc66	1.529187
160	0xbd5fa959	-0.054604862
161	0x3e5142ba	0.2043561
162	0xbda215f1	-0.07914341
163	0x3fded9b1	1.7410184
164	0xbe413719	-0.18868674
165	0xbf5a933a	-0.853809
166	0x3f2962ea	0.66166556
167	0x3e825382	0.25454336
168	0x3f990841	1.1955644
169	0xbc9dda16	-0.01926903
170	0x3e76a782	0.24087337
171	0x3cb9d7f4	0.022685982
172	0xbf7eb007	-0.99487346
173	0x3f08f70c	0.53501964
174	0x3f8332c7	1.0249871
175	0xc062dec7	-3.5448472
176	0x3e75e700	0.24013901
177	0xbec92347	-0.39284727
178	0xc016deb9	-2.357344
179	0x400d6ec4	2.2098856
180	0xbe9f8c71	-0.31161836
181	0xbfe2c930	-1.7717648
182	0x3f424889	0.7589193
183	0x3f4e1f08	0.805161
184	0xbd681f49	-0.05667046
185	0x402c2525	2.6897671
186	0xbfe23ec7	-1.7675408
187	0xbf8334de	-1.0250509
188	0xbfa5809c	-1.2929873
189	0xbdf22045	-0.11822561
190	0x3f30b10f	0.6902017
191	0xc04f81ed	-3.242305
192	0xbfb036fa	-1.3766778
193	0x3ed3f59f	0.41398332
194	0x3e7b31e7	0.24530755
195	0xbf3df709	-0.7420507
196	0xbdda18e5	-0.106492795
197	0xbf9ce7ea	-1.2258275
198	0x3ef42a9e	0.47688764
199	0x3db181e9	0.086673565
200	0x3e14c186	0.14526948
201	0x3f182503	0.59431475
202	0x3efe68a8	0.4968922
203	0x3c048cdb	0.008090223
204	0xbe9de37b	-0.30837616
205	0x3f7a3cc4	0.9774897
206	0xbfb05d65	-1.3778502
207	0xbf2f5071	-0.6848212
208	0x3e986f69	0.297725
209	0x3f135000	0.57543945
210	0xbe81fbf1	-0.2538753
211	0xc034f0d1	-2.8271983
212	0xbec67397	-0.38760063
213	0xbdf40370	-0.11914718
214	0x3f6761d8	0.9038367
215	0x3f79148f	0.97296995
216	0xbea45a5b	-0.32100186
217	0xc0412eb3	-3.0184753
218	0xbc3c79f0	-0.011503682
219	0xbfb38c51	-1.4027196
220	0x3f635773	0.8880531
221	0x3dbdb6a4	0.092633516
222	0x3f122fba	0.57104075
223	0x3fb826a5	1.4386793
224	0x3e9bbcdb	0.30417523
225	0xbf021724	-0.5081656
226	0x3e397748	0.18111908
227	0xbe0140ea	-0.12622419
228	0xbfb726dc	-1.4308734
229	0xbf495bcd	-0.786557
230	0x3ea8d285	0.32973114
231	0xbdae246d	-0.085030414
232	0xbfcf955d	-1.6217457
233	0xbfffa8a3	-1.9973339
234	0x3ece07db	0.40240368
235	0x3ede35a2	0.43400294
236	0xc03bf3a9	-2.9367468
237	0xbd67ba34	-0.05657406
238	0x3fb13b28	1.3846178
239	0x3e68b478	0.22725093
240	0x3f0c610e	0.54835594
241	0x3fc37a32	1.5271666
242	0xbefa4ebe	-0.488882
243	0x3f876af9	1.057952
244	0xbd00f261	-0.03148115
245	0x3f2f981b	0.6859147
246	0xbf430d2c	-0.76191974
247	0x3ff509f6	1.9143665
248	0xbce2ccb7	-0.027685506
249	0xbe38c82d	-0.18045111
250	0xbf7139bf	-0.9422874
251	0x3e8c337b	0.27383026
252	0x3fdc1926	1.7195175
253	0x3f3ba637	0.733005
254	0x3edfbd43	0.43699083
255	0xc00d7af8	-2.2106304
