AI/ML_deseases/tfliteModels/guava.tflite (tflite, 307616 bytes, 8 tensors)

sequential/conv2d/Relu;sequential/conv2d/BiasAdd;sequential/conv2d_2/Conv2D;sequential/conv2d/Conv2D;sequential/conv2d/BiasAdd/ReadVariableOp f4 [64, 3, 3, 3]
0	0xb9a1ee6a	-0.00030885945
1	0xb8723005	-5.7742018e-05
2	0x37519554	1.2492139e-05
3	0xb93f93ca	-0.00018270235
4	0x38ad1390	8.252927e-05
5	0xb93372f9	-0.00017113601
6	0xb9333295	-0.00017089614
7	0x389549cc	7.1186194e-05
8	0x38ae02ce	8.297489e-05
9	0x389f4ecf	7.59639e-05
10	0xb91c149d	-0.00014884998
11	0x37cb0ddd	2.4205941e-05
12	0x38d3a327	0.000100916535
13	0xb7a14841	-1.9226341e-05
14	0x3883b1eb	6.2797066e-05
15	0x39487a11	0.0001911896
16	0xb9521ba7	-0.00020037462
17	0x386d7ef6	5.6623445e-05
18	0xb9977edf	-0.0002889549
19	0xb932e03e	-0.0001705894
20	0xb9cec556	-0.0003943841
21	0x3990ad85	0.00027595102
22	0xb984c981	-0.00025327134
23	0x39ab66b8	0.00032692193
24	0xb9b4ec1f	-0.000345082
25	0x397876c4	0.00023695367
26	0xb9cde048	-0.0003926775
27	0xb90e8634	-0.0001359217
28	0x3a011d98	0.0004925369
29	0xb98b73c1	-0.0002659839
30	0xb9ead142	-0.00044787867
31	0x3a592e8c	0.0008284829
32	0xb98862aa	-0.00026013452
33	0xba383781	-0.00070273137
34	0x3a5efd8f	0.0008506411
35	0xba01a345	-0.00049452885
36	0xba4664d7	-0.0007568127
37	0x3a4efb75	0.00078957464
38	0xb9be488a	-0.0003629367
39	0xba3c0192	-0.0007171865
40	0x3a3e629b	0.0007262618
41	0xb988ca70	-0.0002609077
42	0xba35daae	-0.0006937188
43	0x3a5ec05e	0.0008497293
44	0x38fc7f9e	0.00012040067
45	0xb90d0732	-0.00013449488
46	0x39ecf2a9	0.00045194224
47	0xb9569ca5	-0.00020466985
48	0xb93895a6	-0.00017603356
49	0x39fe5409	0.00048509266
50	0x3942e7d3	0.00018587643
51	0xb98153f6	-0.00024667353
52	0x3a4e28f4	0.0007864379
53	0xb9083865	-0.0001299098
54	0xba1e641b	-0.00060421386
55	0xba2cab3c	-0.0006586795
56	0xb91ce728	-0.00014963432
57	0xba2755c6	-0.00063833257
58	0xba00395a	-0.00048913585
59	0xba1b073f	-0.00059138605
60	0xb9d9cec2	-0.00041543512
61	0xb9783256	-0.00023669875
62	0xba0e6516	-0.0005431933
63	0xb91ff127	-0.00015253258
64	0x38c1d17a	9.241975e-05
65	0xb9d085fd	-0.0003977268
66	0xb63b2d3d	-2.7891504e-06
67	0x39249a83	0.00015697819
68	0xba022656	-0.0004964819
69	0x3888983f	6.5133434e-05
70	0xba112c06	-0.0005537871
71	0x391bf6b6	0.00014873859
72	0xb8b91e4e	-8.827132e-05
73	0xb98f46aa	-0.00027327734
74	0x39c3fbb6	0.00037380838
75	0xb8fe29e6	-0.00012119468
76	0x39855b35	0.0002543569
77	0x39e755f4	0.00044123793
78	0xb83ee144	-4.5509325e-05
79	0x399297c2	0.00027960358
80	0x3a00abb7	0.00049084
81	0x394a678e	0.00019302798
82	0xb9c29b5e	-0.0003711832
83	0x3a28af79	0.0006434839
84	0xb8d658cd	-0.000102208556
85	0xb910196d	-0.00013742382
86	0x3a348d1e	0.0006887483
87	0xb9ec5b79	-0.0004508158
88	0xb91caa9e	-0.00014940879
89	0x3a46d6d8	0.0007585115
90	0xb9fe3a8e	-0.00048490282
91	0xba40f0b9	-0.0007360089
92	0x398e086f	0.00027090634
93	0xb8412d09	-4.6056728e-05
94	0xba88ec6a	-0.0010446433
95	0x39a7c490	0.00031999173
96	0xba2fe52b	-0.0006709869
97	0xba2403a0	-0.00062566437
98	0x39b6566f	0.00034778143
99	0xb80497c8	-3.161261e-05
100	0xba86379f	-0.0010239965
101	0x3a3521e4	0.0006909652
102	0xb90c0842	-0.00013354517
103	0xba751844	-0.0009349624
104	0x38d0551d	9.9340665e-05
105	0xb9ab34af	-0.00032654914
106	0xba6cb28f	-0.0009029293
107	0x39c732ca	0.0003799408
108	0xba63c234	-0.00086883013
109	0xb8f8bbf8	-0.000118605734
110	0x3937c694	0.00017526216
111	0xbac8d1a5	-0.0015321268
112	0xb914c55d	-0.00014187903
113	0x39d84fad	0.00041258094
114	0xbab75e85	-0.0013989961
115	0xb9a1a834	-0.00030833634
116	0x3a49474b	0.0007678165
117	0xba827a15	-0.0009954596
118	0xba1d3998	-0.0005997657
119	0x3a1b67ff	0.00059282774
120	0xba86f629	-0.001029675
121	0xb75957e2	-1.295467e-05
122	0x39afac64	0.00033507042
123	0xbaa4d5aa	-0.0012575884
124	0xb9f7d7a9	-0.0004727219
125	0x39d6587a	0.0004088318
126	0xbaa73db0	-0.0012759473
127	0xb891018c	-6.914427e-05
128	0x397b4abe	0.00023965069
129	0xba9fcd64	-0.0012191948
130	0xb9c867f5	-0.00038224427
131	0x3a4b302b	0.0007751013
132	0xba4dd50e	-0.0007851877
133	0xb9cdf995	-0.000392866
134	0x3a3c1dec	0.00071760896
135	0xba0b1c67	-0.00053066615
136	0x395a0b41	0.00020794293
137	0x39ee4612	0.00045447104
138	0xba826217	-0.0009947446
139	0x39fb0928	0.00047881273
140	0x3995b964	0.0002855762
141	0xb9833b1d	-0.0002503031
142	0x39e715b8	0.00044075935
143	0x3a24a3bf	0.00062805036
144	0xba101de6	-0.0005497619
145	0xb9496c40	-0.0001920918
146	0x3a530265	0.0008049368
147	0xb9dcdd9f	-0.0004212679
148	0xb8f300ba	-0.00011587278
149	0x38281864	4.0077037e-05
150	0xba804af9	-0.0009787969
151	0x3984849b	0.000252758
152	0x39eac63c	0.00044779654
153	0xba4c46d5	-0.0007792537
154	0x395c7a06	0.00021026292
155	0x3971a445	0.00023044746
156	0xba83f482	-0.0010067376
157	0xb98906f6	-0.00026135863
158	0x3a35407d	0.00069142116
159	0xb9fdf33f	-0.00048437153
160	0x398948f2	0.00026185025
161	0x3a2d21c3	0.0006604457
162	0x39c1597e	0.00036878505
163	0x3a2ae9c2	0.0006519818
164	0xb90a8978	-0.00013211917
165	0x3986830b	0.00025656106
166	0x3a374754	0.0006991525
167	0x39877f28	0.00025843945
168	0x39a44a5d	0.00031335923
169	0x3a241788	0.000625961
170	0xb97fda3d	-0.00024399995
171	0x3a03b16c	0.00050236913
172	0x397e1deb	0.00024234473
173	0xb9642feb	-0.00021761625
174	0x3a5dc702	0.00084601354
175	0x3a0f72e5	0.0005472138
176	0xb8d35751	-0.00010077528
177	0x3a4257bb	0.00074135856
178	0x399d621f	0.0003001848
179	0xb83cd2c0	-4.501897e-05
180	0x39f7c792	0.00047260203
181	0x395b64d4	0.00020923029
182	0xba2a19a2	-0.0006488805
183	0x3982f89a	0.00024980755
184	0xb6bb1335	-5.5752703e-06
185	0x38de3aa1	0.000105967054
186	0xb8ea6a75	-0.00011177819
187	0x3a1c96c9	0.00059733965
188	0x38b02012	8.3983075e-05
189	0xb9198a8b	-0.00014642828
190	0x3a19360d	0.0005844541
191	0xb920d2c6	-0.00015337308
192	0xba0f581d	-0.0005468147
193	0x3988fb30	0.0002612709
194	0xb84c7595	-4.8746897e-05
195	0xba0f3e3c	-0.0005464291
196	0x3a494ad7	0.00076786935
197	0xb9632817	-0.00021663342
198	0xba430bc4	-0.0007440413
199	0x3a1170cf	0.0005548121
200	0x39c68dbd	0.00037871106
201	0xba49ab72	-0.0007693089
202	0x3a01eb9f	0.000495607
203	0x39e35c9a	0.00043365808
204	0xba294ce1	-0.0006458294
205	0x3a2daf45	0.00066255435
206	0xb93de6ed	-0.00018110471
207	0xb97a4629	-0.00023867995
208	0x39b01f40	0.0003359262
209	0x39346ca1	0.00017206605
210	0xb9e3865e	-0.00043396925
211	0x3a02db17	0.00049917534
212	0x398dff9a	0.00027084054
213	0xb7e57bda	-2.73566e-05
214	0x3a54bd65	0.000811538
215	0xb8f4a553	-0.00011665621
216	0x38d6f7d8	0.0001025048
217	0xb8e048c9	-0.000106947096
218	0xb87cefd4	-6.030484e-05
219	0xb87e6305	-6.065054e-05
220	0xb9b1bdc3	-0.00033901454
221	0xb92d36a2	-0.00016518918
222	0xb9b05ae9	-0.0003363707
223	0xb9a0ce33	-0.00030671209
224	0x38bd89e9	9.03791e-05
225	0x39711a10	0.0002299326
226	0x3832f5f4	4.266757e-05
227	0x39301d62	0.00016795614
228	0xb99b1798	-0.00029581483
229	0xb8d468c8	-0.00010128465
230	0x398d28d1	0.00026924026
231	0x39377689	0.00017496398
232	0x39b3e927	0.00034315253
233	0xb8085115	-3.250044e-05
234	0xb915502a	-0.00014239611
235	0x3974fa87	0.00023362982
236	0xb9c859dc	-0.00038213923
237	0xb97cd8c5	-0.00024113346
238	0xb9ab4084	-0.0003266373
239	0x39543f0c	0.00020241382
240	0xb9976c37	-0.0002888159
241	0xb999d145	-0.00029338352
242	0xb996b702	-0.0002874658
243	0x39adfc21	0.00033184982
244	0x39106eb6	0.00013774153
245	0x3a28e710	0.00064431224
246	0xba215b9e	-0.00061553146
247	0xb98ea427	-0.00027206654
248	0xb95944c3	-0.00020720348
249	0xba3c3d0f	-0.00071807293
250	0xba7f0008	-0.00097274827
251	0xb9e91bc9	-0.00044461925
252	0x39fe6316	0.0004852048
253	0xb9293341	-0.0001613619
254	0x39b9ad48	0.00035415054
255	0xb9fde58a	-0.0004842694

sequential/conv2d/BiasAdd/ReadVariableOp f4 [64]
0	0xbc628536	-0.013825705
1	0x3dbee187	0.0932036
2	0xbd4f10bb	-0.050553065
3	0x3e90e22f	0.28297564
4	0x3dd9cf7f	0.1063528
5	0x3cdac0a0	0.026703179
6	0xbf09db9a	-0.5385071
7	0x3dd6ef66	0.104948804
8	0xbc873ea7	-0.016509367
9	0x3e78fdaa	0.24315515
10	0x3d9b67ac	0.07588133
11	0x3d933ba5	0.07189111
12	0xbc85226c	-0.016251765
13	0xbc9d931b	-0.019235184
14	0xbc13040d	-0.008973134
15	0x3e0d1f9e	0.13781592
16	0xbbc6d737	-0.006068136
17	0xbbe13dc2	-0.006873817
18	0xbc8e53a1	-0.017373862
19	0x3cee7a47	0.02911104
20	0xbd1376c5	-0.03600194
21	0xbcb31d1b	-0.021864465
22	0xbeadd71c	-0.33953178
23	0xbc497193	-0.012295145
24	0xbcf7bc48	-0.030241147
25	0x3eb6ac7f	0.3567848
26	0x3db4e57a	0.08832832
27	0xbc4e8a36	-0.012606194
28	0x3e2883fb	0.16456597
29	0xbf1834db	-0.5945565
30	0xbbb9d720	-0.005671397
31	0x3cef0ce8	0.029180959
32	0xbaeac23a	-0.0017910667
33	0xbc889597	-0.016672892
34	0x3e45d314	0.19318801
35	0xbc83a07e	-0.01606774
36	0xbead9ce8	-0.33908772
37	0xbd051246	-0.03248813
38	0x3de467ee	0.111526355
39	0xbcc464eb	-0.023973903
40	0x3ebcc473	0.3686863
41	0xbdf41932	-0.11918868
42	0xbe7a65e5	-0.24452932
43	0xbca3363c	-0.019923322
44	0x3c7165cb	0.014733742
45	0xbec98dfc	-0.39366138
46	0xbda9b3af	-0.08286225
47	0xbe08903b	-0.1333627
48	0x00000000	0.0
49	0xbba5da3c	-0.005061416
50	0x00000000	0.0
51	0xbc98377a	-0.01858114
52	0xbcdeabeb	-0.027181586
53	0xbdefb4b5	-0.11704389
54	0xbc54d74c	-0.012990784
55	0xbc5af30f	-0.013363614
56	0xbbda5a5f	-0.006663605
57	0xbcd28aa4	-0.025700875
58	0x3cdaa047	0.026687754
59	0xbc9a9979	-0.01887201
60	0xbc5be6dd	-0.013421741
61	0x3e75bcf8	0.23997867
62	0xbc454542	-0.012040438
63	0x3eb213af	0.34780642

sequential/conv2d_1/BiasAdd/ReadVariableOp f4 [64]
0	0xbc0b4537	-0.008500389
1	0xbc11084f	-0.008852079
2	0x3ddce964	0.10786703
3	0x3dc7eee1	0.097623594
4	0x3d4322c8	0.04764059
5	0xbc5c79e1	-0.013456793
6	0xbca13fd5	-0.019683758
7	0xbd1a03bc	-0.037601218
8	0xbc16969d	-0.009191182
9	0xbc4a4233	-0.012344885
10	0xbde1ee25	-0.110317506
11	0xbc5316da	-0.012883866
12	0xbbdd7cdf	-0.0067592706
13	0x3d937a2f	0.07201039
14	0x3dd0d610	0.10197079
15	0xbcc8e2df	-0.024522243
16	0x3dd64748	0.104628146
17	0x3e59852f	0.21242212
18	0xbc8bf504	-0.017084606
19	0xbbf86bcc	-0.0075812098
20	0xbe4a90c3	-0.19781785
21	0xbc69e109	-0.014274844
22	0x3d09ae66	0.033613585
23	0xbee288a0	-0.44244862
24	0xbd1529bc	-0.036416754
25	0x3dcab761	0.09898258
26	0x3d64de63	0.055876147
27	0xbc8a3239	-0.016869651
28	0xbc002aa7	-0.007822669
29	0x3d2aabca	0.041667737
30	0x3e5aae14	0.21355468
31	0xbe49b8dd	-0.19699426
32	0xbe336a16	-0.17520937
33	0xbf09bf4a	-0.5380751
34	0xbd861ce5	-0.0654848
35	0xbd199f2b	-0.03750531
36	0xbddb0543	-0.10694363
37	0xbcc1d7ce	-0.023662474
38	0xbd239ee7	-0.039946463
39	0x3d4b7c07	0.04967883
40	0xbc5e6e9d	-0.013576177
41	0x3c1936b1	0.009351418
42	0xbcd33787	-0.025783313
43	0x3d217906	0.039422058
44	0xbbce5c63	-0.0062976344
45	0x3d24b3b8	0.040210456
46	0xbe026466	-0.12733611
47	0xbd185417	-0.03718957
48	0xbd01f277	-0.031725373
49	0xbe6d568b	-0.23177545
50	0x3dca17e9	0.09867842
51	0x3d00936d	0.031390596
52	0x3e884941	0.26618388
53	0xbda3ffbe	-0.08007763
54	0xbd0141c6	-0.031556867
55	0xbd5dae3d	-0.054121245
56	0x3e194d46	0.14970884
57	0x3d760d1c	0.060071096
58	0xbc5820f8	-0.013191454
59	0x3e8147a4	0.2524997
60	0xbe441d96	-0.19151911
61	0xbebb96ce	-0.36638492
62	0xbc170c39	-0.009219223
63	0xbc3a26ca	-0.011361787

sequential/conv2d_2/BiasAdd/ReadVariableOp f4 [64]
0	0xbd0b47b5	-0.034003932
1	0xbd95060c	-0.07276544
2	0x3bdd96b6	0.006762351
3	0xbe39b09d	-0.18133779
4	0xbd65a777	-0.05606791
5	0xbd16838b	-0.036746543
6	0xbde2e9b8	-0.110797346
7	0xbef1b19d	-0.4720582
8	0xbddefdf5	-0.10888282
9	0xbd34acfc	-0.044110283
10	0xbd09ff29	-0.033690605
11	0xbc402d88	-0.0117296055
12	0x3ec0844e	0.3760094
13	0xbb28a0c9	-0.00257306
14	0x3e1db1c2	0.1539984
15	0xbcdc70f6	-0.026909333
16	0xbc91c239	-0.017792808
17	0xbd8b5f1d	-0.06805251
18	0xbdc8197e	-0.09770487
19	0xbe08fe66	-0.13378295
20	0xbe1dd589	-0.15413488
21	0xbc8d59c0	-0.01725471
22	0xbbb7ca9e	-0.0056088706
23	0x3d9fe68b	0.078076445
24	0x3e3e752e	0.18599388
25	0x3da70996	0.08156125
26	0xbdc11e60	-0.09429622
27	0xbdc2f7bd	-0.095199086
28	0xbd4a8874	-0.049446538
29	0xbe2123c3	-0.15736298
30	0x3d38ff4e	0.045165353
31	0xbd3b1fdb	-0.045684677
32	0xbc981a3f	-0.018567203
33	0xbc2da6e6	-0.010598874
34	0x3c2850c8	0.010273166
35	0x3d8baaf9	0.0681972
36	0xbcf37aa3	-0.029721564
37	0x3cb9d8b9	0.02268635
38	0x3bb3619f	0.005474284
39	0xbc47eebf	-0.012202918
40	0xbc805db1	-0.015669676
41	0xbd13cf15	-0.03608616
42	0x3d5e5fc0	0.054290533
43	0xbd934c1b	-0.0719225
44	0x3d10425f	0.035219546
45	0xbc97d132	-0.01853237
46	0x3e01e591	0.12685229
47	0x3dac6be6	0.084190175
48	0x3d5bd6de	0.05367171
49	0xbcfb62d4	-0.030686773
50	0x3e5b1f02	0.21398547
51	0xbd8c3e9d	-0.0684788
52	0x3e0a28dd	0.1349215
53	0xbd0b9d09	-0.034085307
54	0x3ddb2108	0.106996596
55	0xbc7a96d9	-0.015294754
56	0xbd928eca	-0.07156141
57	0xbd09d85e	-0.03365361
58	0x3f0e1510	0.5550089
59	0xbd3291c4	-0.043596044
60	0x3ee07704	0.43840802
61	0x3eda614e	0.42652363
62	0xbdb9b236	-0.09067194
63	0xbb5f05c1	-0.003403053

sequential/conv2d_1/Conv2D f4 [64, 3, 3, 64]
0	0x3c9cc678	0.019137606
1	0xbd1a7253	-0.037706684
2	0xbc3a887b	-0.011385079
3	0xbb1aa0e9	-0.0023594445
4	0x3d4e63fc	0.05038832
5	0xbd8835b8	-0.06650871
6	0x3d76e8e9	0.060280714
7	0xbd2b1dda	-0.041776516
8	0xbd504fa0	-0.050857186
9	0xbd5fbf0d	-0.05462556
10	0x3d0dd986	0.034631275
11	0x3d338bf3	0.043834638
12	0xbd6c35c0	-0.057668447
13	0x3d009e10	0.03140074
14	0xbcc16998	-0.023609921
15	0x3d431e90	0.04763657
16	0xbbdd7ecc	-0.0067595
17	0xbd48b536	-0.04900094
18	0xbd7bd880	-0.061485767
19	0xbda032cf	-0.07822191
20	0x3d4040ef	0.046936926
21	0xbc86122a	-0.016366083
22	0x3cd2ec4f	0.025747446
23	0xbd77f434	-0.060535625
24	0x3d24e684	0.0402589
25	0x3d5f4752	0.054511376
26	0xbcdc0ca1	-0.02686149
27	0xbd6a3e22	-0.05718816
28	0xbc05dcef	-0.00817035
29	0x3be95274	0.007120425
30	0xbc2d5c30	-0.010581061
31	0xbc88c7a9	-0.016696768
32	0xbc06ad04	-0.008219961
33	0xbcd226c8	-0.025653258
34	0xbc3e7e7b	-0.011626835
35	0x3d0970a3	0.033554684
36	0xbbddf461	-0.006773517
37	0xbc958415	-0.018251458
38	0xbc9ad3c0	-0.018899798
39	0x3c9b9ac0	0.018994689
40	0x3d119cc9	0.035549913
41	0xbc4fc9e1	-0.012682409
42	0xbd9f2b43	-0.077719234
43	0x3d82c8bc	0.06385943
44	0xbd754adb	-0.05988584
45	0x3c3bf5f9	0.011472219
46	0x38d89d69	0.000103290025
47	0x3c965ec3	0.018355733
48	0xbd562274	-0.05227895
49	0xbd49113d	-0.049088705
50	0x3c2a6b78	0.010401599
51	0x3d82a2b8	0.063786924
52	0x3d3ac3a2	0.045596726
53	0xbc8a0caa	-0.016851742
54	0x3c2cb5f4	0.010541428
55	0x3c255898	0.010091923
56	0x3d7b48d4	0.06134875
57	0x3d66d051	0.05635101
58	0x3c986fe3	0.01860804
59	0xbcb5a1a1	-0.022171797
60	0xbc781c76	-0.015143504
61	0xbc524506	-0.012833839
62	0xbc6f4991	-0.014604942
63	0xbd9ac73b	-0.075575314
64	0xbd437b42	-0.04772497
65	0x3c52c490	0.012864247
66	0x3d2556ba	0.040365912
67	0x3d164cde	0.0366944
68	0x3d384d6e	0.044995718
69	0xbd293d53	-0.04131825
70	0xbd9bac8b	-0.07601269
71	0x3d502bcf	0.05082303
72	0xbd3d3824	-0.046196118
73	0xbd8687c1	-0.06568862
74	0x3c83dc41	0.016096236
75	0xbccc4408	-0.024934784
76	0x3d39a7dc	0.0453261
77	0xbd457c49	-0.04821423
78	0xbd8fc3a5	-0.07019738
79	0x3d25e796	0.04050406
80	0xbc4b4b12	-0.012408035
81	0xbb805104	-0.003915908
82	0x3c8be09a	0.017074872
83	0xbd9f53a9	-0.07779629
84	0xbc951455	-0.018198172
85	0xbcac85a0	-0.021059811
86	0x3cd02a42	0.025410775
87	0xbd2202a5	-0.039553303
88	0x3aa66217	0.0012694028
89	0xbd2dae06	-0.04240229
90	0xbcce4cdf	-0.02518314
91	0x3d2204e0	0.03955543
92	0xbca158dc	-0.019695692
93	0xbb96b704	-0.004599454
94	0xbca449c4	-0.020054705
95	0x3bd4eb8f	0.0064978073
96	0x3bcb43e6	0.0062031625
97	0xbd80cb5c	-0.06288788
98	0xbd74c20d	-0.059755374
99	0x3d284e30	0.04109019
100	0xbd47f995	-0.048822004
101	0xbd2ec979	-0.042672608
102	0xbcb7cd02	-0.022436623
103	0x3d5a3f1d	0.053282846
104	0xbcc28a08	-0.023747459
105	0xbaddc5cf	-0.0016919913
106	0x3d6958c3	0.056969415
107	0x3b1ef0ef	0.0024252494
108	0x3d17c991	0.037057463
109	0x3d23f8b7	0.040032115
110	0xbd6296e5	-0.055319685
111	0xbcc3c371	-0.023896905
112	0x3d677200	0.056505203
113	0xbd415466	-0.04719963
114	0xbd372d3c	-0.044720873
115	0xbd7332a9	-0.059374485
116	0xbd43a4da	-0.047764637
117	0xbc98fd0e	-0.018675353
118	0xbd5a2a52	-0.053263016
119	0xbc89afa2	-0.016807381
120	0xbbacd4f0	-0.0052744076
121	0x3d6a04c9	0.05713347
122	0xbd907556	-0.0705363
123	0xbcc78de0	-0.024359643
124	0xbd4aec4b	-0.049541753
125	0x3c1bc1b9	0.009506636
126	0xbbc2d55a	-0.0059458436
127	0x3cb5325a	0.022118736
128	0x3d11b8c0	0.035576582
129	0xbd2b1231	-0.041765396
130	0xbd1729df	-0.036905166
131	0x3a943a1f	0.0011308825
132	0x3cf5d74e	0.030009892
133	0xbd57b97f	-0.052667137
134	0xbb3f9dab	-0.0029238265
135	0xbd89eafa	-0.06734271
136	0x3c05ff78	0.008178584
137	0x3d3a5853	0.04549439
138	0xbd12e819	-0.035865877
139	0xbc97863a	-0.018496621
140	0xbcb9ecb8	-0.022695884
141	0xbc130e7a	-0.008975619
142	0x3d5fce58	0.054640144
143	0x3c747e8d	0.01492275
144	0xbd2dff83	-0.042480003
145	0xbcd5f7fd	-0.026119227
146	0x3d8e4f81	0.06948758
147	0x3c886164	0.016648002
148	0x3cb1c44c	0.021700047
149	0xbd53d7c1	-0.05171943
150	0x3c8f1955	0.017468134
151	0x3d5ae360	0.053439498
152	0x3cc39841	0.023876311
153	0x3b2e4564	0.0026591653
154	0x3cb17cc5	0.02166594
155	0xbda6e80c	-0.08149728
156	0xba4d4da9	-0.00078317017
157	0xbb20e042	-0.002454773
158	0xbc2843d0	-0.010270074
159	0xbc011f78	-0.007881038
160	0x3d10ee99	0.035383794
161	0x3bf24c9b	0.007394386
162	0x3d8fc06d	0.07019124
163	0xbcf57ea9	-0.029967623
164	0xbd8a7f40	-0.06762552
165	0x3c676919	0.014124178
166	0xbd0877be	-0.03331732
167	0x3d6ad1be	0.057328932
168	0xbc9e648d	-0.019335056
169	0xbbc4a555	-0.0060011544
170	0x3cd47d0c	0.025938533
171	0x3cdf1f5a	0.02723663
172	0xbd67aa3f	-0.056558844
173	0x3c38ed48	0.011287041
174	0x3bf5fae6	0.007506716
175	0xbbcadbd1	-0.006190755
176	0x3d6b38a4	0.057427064
177	0xbc4b13e0	-0.012394875
178	0x3d138930	0.036019504
179	0x3d81e018	0.063415706
180	0xb91042c3	-0.00013757781
181	0x3caaf82d	0.020870293
182	0x3bc95b18	0.0061448924
183	0x3a51f180	0.00080087036
184	0x3d7cd530	0.06172675
185	0xbd02ea10	-0.0319615
186	0x3caff497	0.021478934
187	0xbd4aaf81	-0.04948378
188	0x3cffc68e	0.031222608
189	0x3d2d62ee	0.042330675
190	0xbd31d434	-0.043415263
191	0xbc5669c1	-0.013086737
192	0x3cbdc5c8	0.023165599
193	0x3d6d4303	0.057925235
194	0xbd0d2639	-0.03446028
195	0xbd05f7ea	-0.032707132
196	0x3c79beb5	0.015243222
197	0xbd8f578d	-0.06999121
198	0x3d7c280e	0.061561637
199	0x3c3f0f36	0.011661341
200	0x3ce98690	0.028506547
201	0x3c2570c0	0.0100976825
202	0x3b135240	0.0022479445
203	0x3d151f08	0.036406547
204	0x3d803df0	0.06261814
205	0xbd21cd6d	-0.03950255
206	0xbd1dea56	-0.03855356
207	0x3d6e4833	0.058174323
208	0x3d0787d0	0.033088505
209	0xbd85354f	-0.065043084
210	0xbd7e01ea	-0.062013544
211	0xbd164e05	-0.0366955
212	0xbca4bd09	-0.02010967
213	0xbd8fe561	-0.070261724
214	0xbd72db2d	-0.059291054
215	0x3cde53c1	0.027139546
216	0xbd91c550	-0.071177125
217	0x3d49b1c6	0.049241804
218	0x3cd76f58	0.02629821
219	0xbd728a71	-0.05921406
220	0x3d394235	0.045229156
221	0x3cf5f828	0.030025557
222	0x3d35adc0	0.044355154
223	0x3d004759	0.031318042
224	0x3d77e60c	0.060522124
225	0xbc4715c8	-0.012151189
226	0x3d2f7365	0.04283466
227	0x3c41c039	0.011825615
228	0x3c20337b	0.009777899
229	0xbd69569d	-0.056967366
230	0xbb4eaddd	-0.0031536736
231	0x3d3db0a4	0.046311036
232	0xbd275a0d	-0.040857363
233	0xbd3d241f	-0.046177026
234	0xbd4c2537	-0.04984018
235	0x3d7d1fd3	0.061797928
236	0xbc283623	-0.010266813
237	0x3d0471f2	0.03233523
238	0xbd861848	-0.065476
239	0x3d485b41	0.04891515
240	0xbd1a5c6a	-0.03768579
241	0x3b97b392	0.0046295607
242	0xbd581139	-0.0527508
243	0xbcd4eabf	-0.025990842
244	0x3d610d5b	0.054944377
245	0xbd882128	-0.06646949
246	0x3ccb469b	0.02481394
247	0xbd54dd7e	-0.051969044
248	0xbc4d1d00	-0.012519121
249	0xbd128290	-0.035769045
250	0x3d38fc31	0.045162383
251	0x3abea3d9	0.001454468
252	0x3d2aa269	0.041658793
253	0xbd2569fb	-0.040384274
254	0xbd1b7c4e	-0.037960343
255	0x3cbfd85f	0.023418603

sequential/conv2d_2/Conv2D f4 [64, 3, 3, 64]
0	0xbd31847f	-0.04333925
1	0x3cc0fd3c	0.023558252
2	0xbbaf6f8f	-0.005353875
3	0xbd4fb823	-0.050712716
4	0xbd91ac3d	-0.0711293
5	0x3d1becca	0.038067617
6	0xbd8fc2ea	-0.07019599
7	0x3c8b9820	0.017040312
8	0xbba9a77c	-0.0051774364
9	0x3c87c5f8	0.016573891
10	0xbd1d2836	-0.038368426
11	0xbb00d8a0	-0.0019660369
12	0x3d0c50ce	0.03425675
13	0x3c22ed5a	0.009944284
14	0xbcde0fa2	-0.027107064
15	0xbd87a360	-0.06622958
16	0xbdbc5f4f	-0.09197866
17	0xbda99fe3	-0.08282449
18	0x3ca419f4	0.020031907
19	0xbc40e82a	-0.011774102
20	0xbd93b5d6	-0.07212417
21	0xbd79346d	-0.060841013
22	0x3d0f7af7	0.035029378
23	0xbcf449e5	-0.029820392
24	0xbc09ca00	-0.008409977
25	0x3bfe4b8c	0.0077604707
26	0x3c29b4ae	0.010358019
27	0xbdb08a3d	-0.08620117
28	0xbb8faa94	-0.004384348
29	0x3cc098a7	0.02351029
30	0xbd9fd929	-0.07805092
31	0xbd92b7a0	-0.0716393
32	0x3d24f853	0.040275883
33	0x3d72c6c4	0.05927159
34	0x382aa512	4.0684892e-05
35	0xbdc76b72	-0.097372904
36	0xbcf1b39d	-0.029504592
37	0xbca6c8ae	-0.020359363
38	0x3cc4c4e8	0.024019673
39	0xbdaff4f5	-0.08591644
40	0xbd1f4dc9	-0.03889254
41	0xbd7d88d5	-0.06189807
42	0x3d272d10	0.04081446
43	0xbdb92819	-0.09040851
44	0xbce1255c	-0.027483635
45	0xbd93954d	-0.07206211
46	0xbcf73ae6	-0.030179452
47	0xbd2df5d3	-0.042470764
48	0x3ba00b9e	0.0048841974
49	0x3ce30c8c	0.027715944
50	0xbca04638	-0.019564733
51	0xbd5e56d0	-0.05428201
52	0xbd479c18	-0.048732847
53	0x3a005ac9	0.00048963405
54	0xbc88fdbc	-0.016722552
55	0x3b925c90	0.0044666007
56	0xbd804a95	-0.062642254
57	0xbd8e8555	-0.06959025
58	0x3d5420e8	0.051789194
59	0x3d0d2853	0.034462284
60	0xbd0bde65	-0.03414764
61	0xbdbc9577	-0.09208196
62	0xbcd4e907	-0.025990022
63	0xbd02fe4d	-0.0319808
64	0xbbac6f86	-0.005262318
65	0x3cf35c4d	0.029707098
66	0xbc009b66	-0.00784955
67	0xbd282df9	-0.041059468
68	0x3cb62ec9	0.022239106
69	0x3c61bced	0.013777954
70	0x3d6541a5	0.055970807
71	0xbd18a02c	-0.037262127
72	0xbdabb94f	-0.08384954
73	0x3cbfff3c	0.023437135
74	0xbd635cb3	-0.055508327
75	0x3b127640	0.0022348315
76	0x3cd8fb84	0.02648712
77	0x3c6ff252	0.014645176
78	0xbca3a7c5	-0.01997746
79	0xbd305c37	-0.043056693
80	0xbd2e1a97	-0.042505827
81	0xbbb61a18	-0.00555731
82	0x3d47a938	0.048745364
83	0xbd70f916	-0.058831297
84	0x3c9fadc0	0.01949203
85	0xbd93a62c	-0.07209429
86	0xbcbb288b	-0.02284648
87	0xbb67281f	-0.0035271717
88	0xbd106945	-0.035256643
89	0xbd2c76e3	-0.042105567
90	0x3cb0923c	0.021554105
91	0xbdc3de44	-0.09563878
92	0xbd552781	-0.052039627
93	0xbcfbb5f3	-0.030726409
94	0x3b022a17	0.0019861513
95	0x3d633f15	0.05548008
96	0xbd420335	-0.04736634
97	0x3c2789e3	0.010225746
98	0xbc6d714d	-0.014492345
99	0xbc8780fc	-0.016540997
100	0xbd880cff	-0.06643104
101	0x3c9d97a6	0.01923735
102	0x3b8c6750	0.0042847767
103	0xbda51b6d	-0.08061872
104	0x3d786683	0.060644638
105	0xbd192053	-0.037384342
106	0xbc0fe588	-0.008782752
107	0x3ca3ccdb	0.019995144
108	0xbce60571	-0.028078767
109	0xbd7f2f73	-0.06230111
110	0xbdba6130	-0.09100568
111	0x3ca70ccf	0.02039185
112	0xbd9989ac	-0.07496962
113	0xbdd10b45	-0.102072276
114	0xbd836213	-0.064151905
115	0xbddb73af	-0.10715424
116	0xbd5ce2d3	-0.053927254
117	0xbd8377e6	-0.06419353
118	0xbcd11980	-0.025524855
119	0x3bc05240	0.00586918
120	0x3c6e0d7e	0.014529584
121	0xbcadb1cb	-0.021202942
122	0x3d33a5e9	0.043859396
123	0xbce94412	-0.028474841
124	0xbb7e04a4	-0.003876009
125	0x3d69cc6b	0.057079714
126	0xbd71d251	-0.059038464
127	0x3d5cb4b1	0.05388326
128	0xbb7ff1bc	-0.0039053997
129	0x3d797cd0	0.060910046
130	0xbc9e879f	-0.019351779
131	0xbd087130	-0.03331107
132	0x3cc1e141	0.02366698
133	0xbc020b88	-0.00793732
134	0x3d7e131a	0.062029935
135	0xbd87691d	-0.06611846
136	0x3ab06482	0.0013457688
137	0xb9de7d00	-0.00042436272
138	0xbb2c4a6b	-0.0026289474
139	0xbd0a2f1e	-0.03373634
140	0x3d10eef6	0.03538414
141	0xbc06b60f	-0.008222117
142	0xba03cc73	-0.0005027719
143	0xbd5ee40d	-0.054416705
144	0xbd7c1fd8	-0.061553806
145	0x3ce9232c	0.028459154
146	0xbd87949c	-0.06620142
147	0x3d161d8c	0.03664927
148	0x3b802ffd	0.0039119706
149	0xbd50194c	-0.050805375
150	0x3cd6a7fc	0.026203148
151	0xbd8489fe	-0.064716324
152	0xbcb8fa3c	-0.022580259
153	0xb88bc8f9	-6.6654706e-05
154	0x3d10873f	0.03528523
155	0xbd96322a	-0.07333787
156	0x3d220c8e	0.039562754
157	0xbbdb5853	-0.0066938787
158	0xb7a1c60c	-1.9284918e-05
159	0xbd7f0f5a	-0.0622705
160	0x3ce696f1	0.028148146
161	0xba8f99d9	-0.0010955884
162	0xbc8a6db6	-0.016898017
163	0xbcd85641	-0.026408317
164	0xbd428735	-0.047492225
165	0x3d0bdf97	0.03414878
166	0xbd5f7380	-0.05455351
167	0x3d08618a	0.033296145
168	0xbb2780ff	-0.0025559065
169	0x3d01a25b	0.031648975
170	0x3d107560	0.035268188
171	0xbd201f58	-0.03909239
172	0xbd198b8c	-0.037486598
173	0x3d845254	0.06461015
174	0xbdcf1b7a	-0.101126626
175	0xbc5ab169	-0.013347962
176	0xbd2f7ad1	-0.042841736
177	0xbda3642c	-0.07978091
178	0xbd868446	-0.06568198
179	0xbd6e4605	-0.058172245
180	0xbd583f7b	-0.052794915
181	0xbcbb94f4	-0.022898175
182	0xbc9d5942	-0.0192076
183	0x3c7f0af5	0.015566577
184	0xbcd41033	-0.02588663
185	0xbd5805f7	-0.052740064
186	0x3d92c9b5	0.07167379
187	0x3d43d8a3	0.047814023
188	0x3cb7bde5	0.022429416
189	0xbc086cd6	-0.00832673
190	0xbb44f7eb	-0.0030054997
191	0x3d842641	0.06452609
192	0xbd82a2f7	-0.06378739
193	0xbbee035b	-0.0072635836
194	0xbc7e74f9	-0.015530818
195	0x3b7c78db	0.0038524184
196	0x3c866f07	0.016410364
197	0xbcbfb774	-0.023402907
198	0x3c95561b	0.018229535
199	0x3b42721b	0.0029670063
200	0xbbd492ab	-0.0064872107
201	0x3d66c360	0.056338668
202	0xbd925312	-0.07144751
203	0x3bf0cd90	0.0073487237
204	0xbcb888b3	-0.02252612
205	0xbdc870cd	-0.0978714
206	0xbd55fda0	-0.05224383
207	0x3d66c0e1	0.056336287
208	0xbcf32009	-0.029678361
209	0xbc859d12	-0.016310249
210	0x3d817128	0.06320411
211	0xbca5e726	-0.020251822
212	0x3d0f1f49	0.034941945
213	0x3c9f0044	0.019409306
214	0x3cf217c5	0.02955235
215	0xbc9c7e59	-0.019103216
216	0xbc1e9ec8	-0.009681411
217	0x3c1209bf	0.008913456
218	0x3d127ee9	0.035765562
219	0xbb469bc9	-0.0030305258
220	0x3d080855	0.03321107
221	0xbdc04c92	-0.09389605
222	0xbcf485fd	-0.029849047
223	0x3d6eb7c7	0.058280732
224	0xbc92b0c4	-0.017906554
225	0x3c522145	0.012825315
226	0xbd869712	-0.06571783
227	0xbd06c1b0	-0.03289956
228	0x3d3155d8	0.043294758
229	0x3d68071e	0.056647412
230	0x3d6106e4	0.054938212
231	0x3bc016b0	0.0058620796
232	0xbc688e52	-0.014194088
233	0xbdafeb9c	-0.08589861
234	0xbd2195cb	-0.039449494
235	0xbdd68d2b	-0.104761444
236	0xbc9427e7	-0.018085433
237	0xbca71c97	-0.020399375
238	0xbda873ff	-0.082252495
239	0xbd801a11	-0.06254972
240	0x3ca1d65a	0.019755531
241	0xbd5d8d23	-0.054089677
242	0xbdcd3768	-0.100203335
243	0xbc73f7e3	-0.014890644
244	0xbd18d482	-0.03731204
245	0xbd615353	-0.055011105
246	0xbd5a2d43	-0.05326582
247	0x3d33f9e8	0.0439395
248	0xbd829f83	-0.06378081
249	0xbd770ea4	-0.060316697
250	0x3d356a2f	0.044290718
251	0x3cd5fb3b	0.026120773
252	0xbc152a21	-0.009104283
253	0x3c89be52	0.016814385
254	0xbcf439d6	-0.029812735
255	0x3cc567d4	0.02409736

sequential/dense/BiasAdd/ReadVariableOp f4 [5]
0	0x3e0aaf2b	0.13543384
1	0xbd604643	-0.054754507
2	0xbd7e9b1f	-0.062159654
3	0xbd026848	-0.03183773
4	0xbda14457	-0.07874363

sequential/dense/MatMul f4 [5, 64]
0	0x3d208c57	0.03919634
1	0x3e318d67	0.17339097
2	0xbead3f9b	-0.3383759
3	0xbea09bde	-0.31368917
4	0x3e64f637	0.22359549
5	0x3e4cd0e5	0.20001562
6	0xbded6db5	-0.115931906
7	0xbfca7279	-1.5816184
8	0xbea1c33c	-0.31594265
9	0x3ec17a2c	0.37788522
10	0x3cf45122	0.029823843
11	0xbeb2c054	-0.3491236
12	0x3ef594a2	0.4796496
13	0xbde6ade0	-0.11263633
14	0x3e5ef4db	0.21773092
15	0xbe0a216b	-0.1348931
16	0xbe413270	-0.18866897
17	0xbe414fa1	-0.18878032
18	0xbdbe0f2a	-0.09280236
19	0xbda1dc80	-0.07903385
20	0xbc9e7499	-0.019342707
21	0x3e8a2fb5	0.26989523
22	0xbd89200c	-0.066955656
23	0x3eb4ac18	0.35287547
24	0x3b78b1fb	0.0037947882
25	0xbd19dfb3	-0.03756685
26	0xbe914416	-0.28372258
27	0xbe4f0df9	-0.20220174
28	0x3e5af856	0.21383795
29	0xbd2e3adf	-0.042536613
30	0x3e4d1118	0.20026052
31	0x3e6af959	0.22946681
32	0xbec3fbce	-0.3827805
33	0xbeaed8d4	-0.34149802
34	0xbe539025	-0.20660456
35	0x3d78d7cc	0.060752675
36	0xbdc27ead	-0.09496818
37	0xbea10117	-0.31446144
38	0xbf235964	-0.63808274
39	0xbe563154	-0.20917255
40	0x3eb7b9dd	0.3588399
41	0xbea5593b	-0.3229464
42	0x3c7be74d	0.015374971
43	0xbdf0fa7e	-0.117665276
44	0x3e283609	0.16426863
45	0x3c270d3b	0.0101960255
46	0x3ee3f947	0.4452612
47	0xbbd30f95	-0.0064410665
48	0xbe045613	-0.1292346
49	0xbc952bc0	-0.018209338
50	0x3f6331c3	0.88747805
51	0xbe810775	-0.25201002
52	0x3eb3e9ae	0.3513922
53	0x3e8147c9	0.2525008
54	0x3f270d02	0.65254223
55	0x3e8718d3	0.26386127
56	0x3ea86572	0.32889897
57	0xbe40207b	-0.1876239
58	0x3f2ca82b	0.67444104
59	0xbe944436	-0.2895829
60	0x3e656437	0.2240151
61	0x3e9868ce	0.2976746
62	0x3cdb8633	0.02679739
63	0x3f2a1781	0.66442114
64	0x3e6d7c2a	0.23191896
65	0xbf8b1b5c	-1.0867724
66	0x3ed1ef01	0.41002658
67	0xbd8c66dd	-0.06855557
68	0xbd1ab66b	-0.037771624
69	0xbe97c881	-0.2964516
70	0xbe918148	-0.28418946
71	0xbff7844c	-1.9337249
72	0x3daecd04	0.085351974
73	0xbee9dc5a	-0.45675927
74	0x3cfd2d19	0.030905293
75	0xbf0dac84	-0.5534136
76	0xbe7d0a44	-0.24710947
77	0x3dec6ac8	0.115438044
78	0xbce7fd07	-0.028318895
79	0x3db5e2b3	0.0888113
80	0xbe83e937	-0.25763866
81	0xbb9cefb6	-0.004789318
82	0xbe6102ed	-0.21973772
83	0x3dcad66e	0.099041805
84	0x3f229fbf	0.63525003
85	0x3e717f0d	0.23583622
86	0x3e5a281c	0.21304363
87	0x3e6c7792	0.23092487
88	0x3e760786	0.24026307
89	0x3ebfa4e0	0.37430477
90	0x3d46e202	0.04855538
91	0x3ea12c63	0.31479177
92	0xbe711360	-0.23542547
93	0xbe1686b7	-0.14699827
94	0xbe59c3dd	-0.21266122
95	0xbf0d85e5	-0.5528243
96	0x3e2eabdd	0.17057748
97	0x3e8c7135	0.2743012
98	0xbfa05571	-1.2526075
99	0x3ec3934d	0.3819832
100	0xbdb4bf21	-0.088255174
101	0xbe00171b	-0.12508814
102	0xbec5b718	-0.38616252
103	0x3e88c071	0.2670932
104	0xbe7fdfa6	-0.24987659
105	0xbf0c5980	-0.54824066
106	0xbba1aaff	-0.0049337144
107	0x3e52f0d1	0.20599677
108	0xbf9f4dfa	-1.2445672
109	0x3d1cc076	0.038269483
110	0x3ec25960	0.37958813
111	0x3da001ab	0.07812818
112	0xbe922295	-0.2854201
113	0xbe4aacc3	-0.19792466
114	0x3e8d5784	0.27605832
115	0xbda12ad9	-0.07869501
116	0x3e9c2519	0.30497053
117	0x3e736c29	0.23771729
118	0xbeacb654	-0.33732855
119	0x3e4f41da	0.20239964
120	0xbe57e972	-0.21085146
121	0x3dd5cf72	0.10439958
122	0xbf2992a3	-0.66239375
123	0xbdf0aced	-0.11751733
124	0xbf46699a	-0.77504885
125	0x3d011853	0.031517338
126	0x3d0c873e	0.034308665
127	0xbe77c980	-0.2419796
128	0x3d56b01a	0.052414037
129	0xbc9140b2	-0.017731044
130	0x3e9e1575	0.30875745
131	0x3e1e1da4	0.15440995
132	0xbe893db3	-0.26804885
133	0xbcef0172	-0.029175494
134	0x3e7052f7	0.23469149
135	0xc0a7ff88	-5.249943
136	0xbd6af902	-0.05736638
137	0x3e934e68	0.28770757
138	0x3c6584a9	0.014008679
139	0x3e3334b8	0.1750058
140	0x3febec08	1.8431406
141	0xbeca99c0	-0.39570427
142	0xbf73f8f1	-0.9530173
143	0x3c191d68	0.00934539
144	0xbe2dfac6	-0.16990194
145	0x3e822a4b	0.25422892
146	0x3c988039	0.018615829
147	0x3e20395d	0.15646882
148	0x3cfb12f6	0.03064869
149	0x3de8ebec	0.113731235
150	0x3d27e58f	0.04099041
151	0x3e305be8	0.1722256
152	0xbfc5ed4c	-1.5463042
153	0x3f175ade	0.5912303
154	0x3dd275f3	0.10276403
155	0xbd267ebb	-0.040648203
156	0x3dd15a07	0.102222495
157	0xbf38e769	-0.72228104
158	0xbfba4f03	-1.4555362
159	0x3e0c6275	0.13709433
160	0xbf28dc65	-0.65961295
161	0xbf71062a	-0.9415003
162	0x3cfdac52	0.030965958
163	0xbf58f8ca	-0.8475462
164	0xbe3622b6	-0.17786679
165	0xbf9ffd90	-1.2499256
166	0x3f1146c4	0.56748605
167	0xbe272342	-0.16322044
168	0x3d852cf8	0.06502718
169	0x3d9fd2fe	0.078039154
170	0xbf3a394c	-0.7274368
171	0x3e9f320c	0.3109287
172	0x3f037234	0.51346135
173	0x3e0dafeb	0.13836639
174	0xbec2dc5b	-0.38058743
175	0xbeaa04ab	-0.33206686
176	0x3e9a8b2a	0.301843
177	0x3e2dcbe9	0.16972317
178	0xc002b448	-2.0422535
179	0xbe0d0f50	-0.13775373
180	0xbd7556dc	-0.05989729
181	0x3d065a35	0.032800872
182	0xbf458ab8	-0.77164793
183	0x3e78896b	0.24271171
184	0x3e07cfde	0.13262889
185	0xbe93fb9d	-0.28902903
186	0x3d9d0d7e	0.07668589
187	0xbe34955a	-0.17635098
188	0x3e24829d	0.1606545
189	0x3e9ddd4f	0.30832908
190	0x3e98e9ce	0.2986588
191	0xbeb41c47	-0.35177824
192	0x3df3d6f6	0.11906235
193	0x3e8ccc53	0.27499637
194	0x3e0898e6	0.13339576
195	0x3ec4ebec	0.38461244
196	0xbe4ca91e	-0.19986388
197	0x3dabe87e	0.08393954
198	0x3e843a9f	0.25825974
199	0x3fc400bb	1.5312723
200	0xbecc7530	-0.39933157
201	0xbe8a735b	-0.27041134
202	0xbd9661f7	-0.07342904
203	0xbddbad3f	-0.107264034
204	0xbf200f72	-0.6252357
205	0xbeea57b3	-0.45770034
206	0xbf2389c7	-0.63882107
207	0xbe93cd90	-0.2886777
208	0x3dc1c79d	0.09461901
209	0x3e938f9c	0.28820503
210	0x3e305b5e	0.17222354
211	0xbe3d5d41	-0.18492605
212	0x3be3dd31	0.0069538583
213	0xbe9357fd	-0.28778067
214	0xbe442ef0	-0.1915853
215	0xbdf098d0	-0.11747897
216	0xba3cd034	-0.00072026555
217	0xbf66c28d	-0.9014061
218	0xbea43e5b	-0.32078823
219	0xbd66db24	-0.056361333
220	0x3dc20568	0.094736874
221	0x3ed958e2	0.42450625
222	0x3e336670	0.17519546
223	0xbf06c717	-0.52647537
224	0xbcca22b3	-0.024674749
225	0x3ce7ab9f	0.028280078
226	0x3e8e52e0	0.27797604
227	0x3e3aa4be	0.18226907
228	0xbde98851	-0.114029534
229	0xbe4b04a3	-0.19825988
230	0x3f2b8d82	0.670128
231	0xbe13af1f	-0.14422272
232	0xbebb5c0b	-0.3659366
233	0xbe838123	-0.2568446
234	0xbe443fca	-0.19164959
235	0x3e0e2699	0.13881911
236	0x3edd1830	0.43182516
237	0xbdabd185	-0.08389572
238	0x3f1cbbc4	0.6122401
239	0x3eaa1236	0.3321702
240	0x3ee54ae3	0.44783697
241	0xbda3b589	-0.079936095
242	0x3eb4b9e9	0.35298088
243	0x3d271628	0.040792614
244	0xbf148aab	-0.5802409
245	0x3e477293	0.194773
246	0xbeb19f77	-0.34691975
247	0x3c1b5296	0.009480139
248	0xbef6760e	-0.48136944
249	0xbd1b21c1	-0.037873987
250	0xbb4a7769	-0.0030893928
251	0x3e0f3606	0.13985452
252	0x3f1035ba	0.5633198
253	0x3e7fe7e3	0.24990802
254	0xbe294010	-0.16528344
255	0xbe204daf	-0.15654634
